weights/decoder_weights.pth (torch, 457961 bytes, 20 tensors)

decoder.0.weight f4 [16, 128, 3, 3]
000000 00 5b 93 bd dd c1 6b bd 69 5e be 3d 52 84 e7 bc
       -0.07195091 -0.05755793 0.09295351 -0.028261337
000010 f2 cf b9 3d 01 d8 ba be 47 c8 c2 bc 59 06 03 be
       0.090728655 -0.36492923 -0.02377714 -0.1279539
000020 15 d2 f2 bb 41 7a 4c 3d dc 04 8e bc 34 95 e0 bc
       -0.0074102976 0.049921278 -0.017336302 -0.027414896
000030 b6 ba 1d bd 30 bf 2f 3e 16 22 b4 3c c7 98 c1 3b
       -0.03850814 0.17162776 0.02198891 0.005908105
000040 d0 63 12 3d f7 06 02 3e 0e 67 16 3e 6a d8 cf bc
       0.03573972 0.1269797 0.1468775 -0.025371749
000050 ef 47 d8 bd fa eb ce 3c 5a 3f bd 3e f0 d7 ee bc
       -0.10560595 0.025259007 0.36962396 -0.029155701
000060 c8 f8 78 3d d4 a7 12 be af 6e 67 3e 06 7f 9b 3b
       0.06078413 -0.14321834 0.22600816 0.004745367
000070 63 7a 48 3e c5 69 9c 3d 18 18 c4 3d 0c 3d f5 bd
       0.19577937 0.076373614 0.09574908 -0.119745344
000080 af e7 a3 3d 06 f4 77 bc 67 c6 74 3e fc a5 5d 3e
       0.080031745 -0.015133863 0.2390381 0.2164535
000090 ca 02 12 3c d6 e4 2f 3c ea a9 20 bd 2e dc a8 3d
       0.008911798 0.010735711 -0.039224543 0.08245121
0000a0 4a 29 cd bd 1d f3 40 bb 38 31 2e 3e 48 0f 8b bd
       -0.10017641 -0.0029441782 0.17010963 -0.06790024
0000b0 1c cc 66 be 51 bc b3 3b f7 84 64 3d 33 2c 15 3e
       -0.22538799 0.0054850955 0.055790868 0.14567642
0000c0 39 a3 bf bc e7 80 87 3e da fd f4 3d 0d c2 59 bc
       -0.02339326 0.26465532 0.11962481 -0.013290894
0000d0 71 c6 fd bd 35 02 38 bd 67 4d 87 bd 4c 0b b5 ba
       -0.12391365 -0.04492398 -0.0660656 -0.0013812571
0000e0 76 72 51 3d 7a d6 a2 bd 3f b0 96 bd 76 9a 8e be
       0.05113455 -0.079510644 -0.07357835 -0.2785222
0000f0 cc 33 53 3c 4e d6 4c 3c bb cf 75 3d ca 20 79 3c
       0.012890767 0.012502266 0.06001256 0.015205571
000100 e8 f1 10 3d c5 a6 ef bc e2 47 cc bb e3 3b 30 be
       0.03538695 -0.029254327 -0.006234155 -0.17210345
000110 62 f1 64 3e 26 fe 12 3d c0 97 99 3d 00 56 14 be
       0.22357705 0.035886906 0.07499647 -0.14485931
000120 85 18 c0 3c 25 2b d8 3c 8c 08 44 3d a0 98 31 bd
       0.023449192 0.02638776 0.047859713 -0.043358445
000130 df 1c 3f 3e 90 14 a0 3a f3 1f 8d 3d 40 25 b5 3d
       0.18663357 0.0012213159 0.068908595 0.088449955
000140 ea 0c a7 3d 6a 21 89 bc e9 ae c1 3c 48 db 46 bc
       0.0815676 -0.016739566 0.023642974 -0.012137242
000150 cf 9d 8f bd b5 bf 1e be c2 06 09 3e e5 0b 6e 3d
       -0.070125215 -0.15502818 0.13381484 0.058116812
000160 41 70 d5 3d 7d 22 84 bd 05 17 48 bd c9 80 9a 3d
       0.10421801 -0.064518906 -0.048850078 0.07544095
000170 4b 51 7a bc 64 5e f1 ba f5 70 06 be eb dc d7 3d
       -0.015278171 -0.0018414971 -0.13129027 0.10540184
000180 79 f0 4a bc 0a 50 51 3c 34 56 b7 3c 4c ce 9e bd
       -0.012386435 0.01277543 0.022379972 -0.07754192
000190 42 a7 4b 3c ba bb 45 3e 60 19 3b 3d 46 43 60 3e
       0.012430014 0.19309893 0.045678496 0.21900663
0001a0 d6 e2 52 3e bb cc 81 3d 6d fd 71 3e 7e ca 99 be
       0.20594344 0.06337877 0.2363183 -0.30037302
0001b0 60 e5 94 3d 0b 02 fe bc 34 cc 80 bd 8c 31 1a 3d
       0.07270312 -0.031006834 -0.06288949 0.037644908
0001c0 2a 31 5c be 0c f9 9c 3c 06 1c 46 3d 45 e4 f7 bd
       -0.2150313 0.019161724 0.04836657 -0.12104086
0001d0 b3 cc 89 be 47 46 4e 3c 8d 6a 9e bd 1a a9 a9 bd
       -0.26913986 0.012589998 -0.07735167 -0.08284207
0001e0 36 fd 51 3d fa e1 fb 3d 38 af db be fe 96 8d 3c
       0.05126687 0.12298961 -0.4290712 0.017283913
0001f0 6d 33 86 be af e5 d0 3d 34 c0 44 3b e6 f5 1b 3c
       -0.2621111 0.10200059 0.0030021789 0.009519076
000200 03 60 c1 3c f2 5d 88 bd 5d 1d 6d bd aa cc e6 bd
       0.023605352 -0.06658544 -0.05788933 -0.11269505
000210 cc 74 6d 3a 10 e4 3a 3d 3b de ab 3c 9c 58 f7 39
       0.00090582366 0.045627654 0.020979991 0.0004717753
000220 f8 f6 e1 bd 0a 01 a8 bc 3d 2e b6 bd b0 08 b6 3c
       -0.11033434 -0.020508308 -0.08895538 0.02222094
000230 b7 d8 49 be 98 17 9f bd 58 e9 08 3e 57 19 ee 3e
       -0.19711576 -0.07768172 0.13370264 0.46503708
000240 5b f1 bd 3d a7 43 5a bd 50 44 ea bd aa 85 1e 3e
       0.092745505 -0.053287175 -0.11438811 0.15480676
000250 4d 49 9f 3d 1e 9a 03 be a4 94 e8 3c b9 af 30 3d
       0.07777653 -0.1285176 0.02839119 0.043136332
000260 86 a4 53 bd c7 33 22 3c 8a e6 f0 bc 18 95 cf 3c
       -0.051670574 0.00990004 -0.029406805 0.025339648
000270 eb b6 60 bd 13 42 86 bd 73 38 9f 3e bc ae 1a be
       -0.054861944 -0.065555714 0.31097755 -0.15105718
000280 23 88 cd bd ef dd 9e 3e c9 e8 f1 3b 4b a3 8e 3d
       -0.10035732 0.31028697 0.0073824865 0.069647394
000290 f9 16 15 bc e9 08 4f 3c 88 0e 1f be fb ab aa be
       -0.009099715 0.012636402 -0.15532887 -0.33334336
0002a0 39 95 07 bd 37 61 f4 bd 73 6f ab 3d df 67 c2 bc
       -0.033101294 -0.11932605 0.083708666 -0.02373117
0002b0 fc 44 e0 bd 81 dd 6b 3d b1 24 9c 3d 7d 6f 78 3e
       -0.10950658 0.05758429 0.07624186 0.2426128
0002c0 e6 16 ce be 9c 97 cf 3d 5c 85 f7 bd fe cd b8 3d
       -0.40251845 0.10136339 -0.12085983 0.09023665
0002d0 fd f4 82 bc 97 5a e1 bc fd 41 4d 3d 54 a7 73 3c
       -0.01598596 -0.027509017 0.05011176 0.014871437
0002e0 97 3c 2f 3d d5 12 42 3e bc 20 30 3d dc 7d ce 3d
       0.042782392 0.18952496 0.042999968 0.100825995
0002f0 36 62 0f 3e c0 6e d0 bc 3d 54 00 3e 6d e5 f7 3d
       0.14002308 -0.025443435 0.12532134 0.12104306
000300 af 5c a5 bb 7b 19 ef bc e6 5c 86 3e 60 0b 9e bd
       -0.005046449 -0.029186955 0.2624275 -0.07717013
000310 e7 ca 57 3e 92 9d f7 3d 5f 97 20 3b c7 63 2c bc
       0.21073495 0.12090601 0.0024504287 -0.010521836
000320 2b 84 9a 3c fa 9f 67 3c 74 e7 84 3d be 7b b0 be
       0.01886185 0.0141372625 0.06489459 -0.34469408
000330 b0 31 7c bd d7 3c b8 bd 65 71 12 bd ef 4b b7 bd
       -0.061570823 -0.08995979 -0.035752673 -0.0895003
000340 2a d2 a1 bd 08 0f bc bd 91 7f e8 bc b4 55 02 bf
       -0.07901414 -0.091825545 -0.02838114 -0.5091202
000350 2f ad 6a be 8e 1a 54 3d 44 05 10 3d 12 2e 76 be
       -0.22917627 0.051783137 0.03516127 -0.24041012
000360 90 04 eb 3b a0 48 e9 bb ed 5e ac 3d 01 46 91 3d
       0.0071721748 -0.0071192533 0.08416543 0.0709343
000370 16 54 19 bd 79 01 29 bd c7 9b b0 3c 1f 85 dc bd
       -0.037433706 -0.04126117 0.021558655 -0.10767578
000380 fa ce be 3b 37 a1 c6 bc 24 33 72 bc 57 35 2a bd
       0.0058230134 -0.024246795 -0.014782701 -0.041554775
000390 a8 c0 25 38 9f 0b 81 3e 25 cd b7 3d 01 c4 b1 bc
       3.951849e-05 0.2520418 0.08974675 -0.021699907
0003a0 cc a8 05 3e 0c 84 09 3e 0a f4 b6 3b d6 f4 cb 3d
       0.13052672 0.13429278 0.005583291 0.09958808
0003b0 cd 1b 9e 3d b7 78 a0 bd 84 08 05 3e a0 5e 6f 3e
       0.07720146 -0.078355245 0.1299153 0.2337594
0003c0 84 c9 89 bc 23 01 61 3d f5 77 8d be 89 50 33 bc
       -0.016819723 0.054932725 -0.27630582 -0.010944494
0003d0 28 5d 88 bc 77 fc 33 bd fd c5 68 3c bb 01 40 be
       -0.016645983 -0.04394194 0.01420736 -0.1875066
0003e0 f5 25 9a bd d3 5e 8d bb b2 6c bd bc df 0e 07 bd
       -0.07526771 -0.0043142824 -0.023123119 -0.032973167
0003f0 2c 78 73 bb 3b 47 c6 3c a1 3b fb bc 73 25 1a 3b
       -0.0037150485 0.024203887 -0.030668082 0.0023520857

decoder.0.bias f4 [128]
000000 b5 f9 82 3c 16 a5 19 3b 2f cf 12 3a ba 9d a5 ba
       0.01598821 0.0023444346 0.0005600331 -0.0012635507
000010 70 67 71 3c a6 4a 8e 3b 9a e3 02 bb 72 16 83 bc
       0.014734134 0.004342395 -0.0019972087 -0.016001914
000020 3c 20 a3 bb aa 26 3c 3b 6d 48 44 bc 2f e9 57 bc
       -0.004978208 0.002870957 -0.011980158 -0.013178154
000030 a5 c5 4e 3c 74 66 37 3c fd 3e 91 3c b8 81 0c bc
       0.012620364 0.01119386 0.01773023 -0.008575849
000040 7d c3 3f 3c d5 a8 08 bc ef 7f 5b 3c cb 9e 70 bc
       0.011704323 -0.008341034 0.013397201 -0.014686297
000050 aa 8f 57 3c 74 f5 2c 3c f1 47 88 bb c9 a8 9e ba
       0.013156811 0.010556567 -0.0041589667 -0.0012104745
000060 88 bc 3c 3a 54 80 4e bc 24 bd 1c 3c e2 d7 02 3c
       0.0007199724 -0.012603838 0.009566579 0.007986041
000070 14 c2 23 3b fc 5d 90 3c 24 f4 bc 38 a0 ec be bb
       0.0024987506 0.01762294 9.010013e-05 -0.0058265477
000080 fe 69 81 3c c2 f7 36 bc b8 e4 62 bc cb 08 12 bc
       0.015797611 -0.0111674685 -0.013848476 -0.008913229
000090 93 eb 1d bb 7f 10 51 bc a9 c4 50 bb 68 ef 88 3b
       -0.0024096712 -0.012760281 -0.00318555 0.00417893
0000a0 4a e5 14 3c 13 c5 05 3c c3 5c 11 bc 52 95 08 bc
       0.00908787 0.008164662 -0.008872214 -0.008336382
0000b0 47 9c 35 bc a5 32 20 bc 03 62 3c 3c e1 15 ad bb
       -0.011084623 -0.0097777 0.011497977 -0.005282149
0000c0 ca d8 64 bc 42 ad 9c 3b fd 8e 24 bc 7d 7d 98 bb
       -0.013967702 0.004781396 -0.010043857 -0.0046536312
0000d0 9f 2f 60 3c 73 23 8d bc 15 94 84 bc 69 4f be 3b
       0.013683229 -0.017228818 -0.016183892 0.0058078063
0000e0 ed 5e 90 3c 35 67 96 3c a2 ca 13 3b 6d 7a 3f bb
       0.01762339 0.01835976 0.0022551198 -0.0029217259
0000f0 6d 86 1a 3c c9 63 17 bc ed e6 53 bc 3d f3 be 3b
       0.009431464 -0.009240099 -0.012933475 0.005827336
000100 00 ac a9 3b 0d 9e ae bb 42 7a 84 3c a9 03 92 bc
       0.0051779747 -0.0053288997 0.016171578 -0.01782401
000110 51 5f 26 bc c8 41 05 bb a3 b3 76 bc e1 b8 59 3c
       -0.010154561 -0.0020333398 -0.015057477 0.0132887075
000120 1f 5b 63 3c cc f4 49 bc b0 08 fd bb 10 89 95 bb
       0.013876705 -0.0123264305 -0.007721983 -0.0045634583
000130 89 87 80 bc 89 01 99 bc ed 62 e9 bb 31 1e 8d bb
       -0.015689628 -0.01867749 -0.0071223886 -0.0043065776
000140 28 12 df 3b 74 38 75 bc 13 ed 20 bc 89 54 44 3c
       0.0068075843 -0.014967073 -0.009822148 0.011983045
000150 26 29 a4 3b 38 e7 67 3c 28 0b 6d bc 5c e2 02 bc
       0.005009788 0.014154248 -0.014467992 -0.007988539
000160 ac d0 93 bc 49 ec 1a bb 26 e0 12 bc b9 9f 13 bc
       -0.018043838 -0.0023639372 -0.008964574 -0.009010249
000170 56 55 d2 bb 01 b6 cd 3b 78 0e 94 3b 2d cd 0b 3c
       -0.0064188642 0.0062778 0.0045183264 0.008532804
000180 46 e4 38 b8 cd 34 88 bc af dd 13 bc 41 ad f8 bb
       -4.4081615e-05 -0.01662674 -0.009025021 -0.007589013
000190 b4 5b 89 3c 6f 0e 38 3c 97 e9 2c 3c fc c3 ff bb
       0.01676736 0.01123391 0.010553739 -0.0078053456
0001a0 7a c8 82 3c 1d 59 2a bc e7 fb c4 3b 88 a1 1c 3c
       0.015964735 -0.010397223 0.0060114744 0.009559996
0001b0 4b 01 ef 3a 5b 5f 73 3c 0d 32 80 bc 5e 42 43 3c
       0.0018234638 0.0148542775 -0.015648866 0.011917679
0001c0 ca dd 61 3c 7e 62 02 3c b4 39 30 3c d6 2a 8d bb
       0.013785789 0.007958053 0.010755945 -0.004308085
0001d0 c0 46 2f 3a 63 4a 0a bc 7f be 80 bc cc 01 99 bb
       0.0006686263 -0.008440587 -0.015715836 -0.0046694037
0001e0 31 a5 1f bc 55 ba 9a 3b c4 8f 7c 3c 29 65 43 3b
       -0.009743975 0.0047219195 0.015415136 0.0029814935
0001f0 ec 48 5c 3c 84 41 6d 3c fe 99 36 3c b6 7c 14 3c
       0.01344512 0.014480952 0.011145113 0.0090629365

decoder.1.weight f4 [128]
000000 2b 2d f3 3e 77 f3 da 3e f2 24 1e 3f 6b a1 f5 3e
       0.47495398 0.42763874 0.61775124 0.47974715
000010 1e 4f eb 3e cf 9a f2 3e 74 ed 1a 3f 6d ca 15 3f
       0.459588 0.47383735 0.60518575 0.58512
000020 b1 5e ee 3e 39 c2 13 3f 69 a2 10 3f cb 4a c1 3e
       0.4655662 0.57718235 0.5649782 0.37752375
000030 dc 69 b2 3e 59 10 2e 3f a1 17 26 3f 81 82 dd 3e
       0.3484639 0.67993695 0.64879805 0.4326363
000040 9b 6e 99 3e da 42 e7 3e 38 48 ee 3e 6c 33 f7 3e
       0.29967198 0.4516819 0.46539474 0.4828142
000050 06 02 ef 3e a1 53 da 3e 18 0d 16 3f 70 26 04 3f
       0.4668123 0.4264193 0.5861373 0.5162115
000060 46 d0 03 3f f2 53 35 3f 07 9d e5 3e 41 fd 0f 3f
       0.51489675 0.70831215 0.44846365 0.5624581
000070 a8 83 11 3f cf 96 ed 3e d4 6f 30 3f 84 58 2d 3f
       0.56841516 0.4640412 0.68920636 0.6771319
000080 51 51 a0 3e e9 1f 07 3f e3 17 e3 3e 52 e7 9d 3e
       0.3131204 0.52783066 0.44354162 0.30840546
000090 d6 4b b8 3e a5 0e 3e 3f bf 6a eb 3e 94 4c e5 3e
       0.35995358 0.74241096 0.45979878 0.44784987
0000a0 fa c3 93 3e a4 96 0b 3f 7f 91 e0 3e 3b 8a fe 3e
       0.28860456 0.54526734 0.43861005 0.49714836
0000b0 eb c4 ee 3e a3 7e 16 3f 7f b5 e5 3e a1 79 e9 3e
       0.4663461 0.5878698 0.44865033 0.45600608
0000c0 25 25 18 3f 9f ff c3 3e 31 9b 36 3f bb a4 33 3f
       0.5943168 0.3828096 0.71330553 0.70173234
0000d0 5a 32 22 3f 45 36 36 3f 11 49 d7 3e e2 d8 11 3f
       0.6335808 0.7117656 0.42047933 0.5697156
0000e0 be 68 14 3f 5a 1d 0f 3f 08 d3 e6 3e c5 38 bd 3e
       0.57972324 0.5590416 0.4508288 0.36957374
0000f0 86 da a1 3e fe a0 0e 3f 10 a4 d7 3e 13 1d d0 3e
       0.31612033 0.55714405 0.42117357 0.40647182
000100 3d 9d f9 3e 57 98 0e 3f 43 47 d1 3e 80 87 26 3f
       0.48752776 0.557012 0.4087468 0.65050507
000110 fa 19 f8 3e 3b b9 00 3f f1 c5 0c 3f 7e 8c f4 3e
       0.4845732 0.5028264 0.54989535 0.47763437
000120 36 2d d9 3e 4a f1 32 3f 98 64 e6 3e 1b 5a 9d 3e
       0.42417306 0.6989943 0.44998622 0.30732808
000130 2e 5c c3 3e 76 17 a6 3e 4a 10 43 3f bc 8c f5 3e
       0.38156265 0.32439774 0.7619673 0.47958934
000140 33 f4 39 3f 93 73 10 3f a7 76 c2 3e e6 23 3b 3f
       0.72638243 0.5642635 0.3798115 0.7310165
000150 15 0b 46 3f 91 13 f5 3e b3 ee 08 3f 82 5b fd 3e
       0.7736066 0.4786649 0.53489226 0.49483877
000160 98 b9 0f 3f 05 d3 cc 3e 38 30 09 3f db d7 09 3f
       0.5614257 0.40004745 0.535892 0.53844994
000170 92 52 d2 3e 23 ed ea 3e 37 2f 2c 3f 0a 6b 36 3f
       0.4107862 0.45884046 0.67259544 0.7125708
000180 f8 9d e8 3e eb e1 1a 3f bb fc fc 3e 2f 96 ee 3e
       0.4543302 0.60500973 0.49411568 0.46598956
000190 1a 0d e8 3e b1 c0 04 3f 67 f5 0f 3f 7b 80 0e 3f
       0.45322496 0.51856524 0.5623383 0.55664796
0001a0 ea 2f 18 3f ae 86 13 3f d9 25 e0 3e 83 22 c2 3e
       0.5944811 0.5762738 0.43778875 0.37916955
0001b0 7a 0f 20 3f df 20 d7 3e 0a 57 34 3f 33 4c 08 3f
       0.62523615 0.42017266 0.7044531 0.5324127
0001c0 d0 14 a3 3e c3 b6 1b 3f d0 95 dd 3e 0f de db 3e
       0.31851816 0.6082575 0.4327836 0.42942855
0001d0 54 ba 14 3f 2c 2e fe 3e 97 e2 dc 3e 2e 81 24 3f
       0.58096814 0.496446 0.43141624 0.6425961
0001e0 cb 85 be 3e 5a f5 c9 3e 18 69 0f 3f 2e b9 03 3f
       0.3721145 0.39445 0.56019735 0.51454437
0001f0 4f e7 0f 3f ef 03 1c 3f 83 73 36 3f 95 c3 de 3e
       0.56212324 0.609435 0.71270007 0.43508592

decoder.1.bias f4 [128]
000000 68 37 9f be fe a4 0d bd 5d ee b8 be 36 f3 f2 bd
       -0.3109696 -0.034581177 -0.36119357 -0.11862795
000010 53 0d c2 bb 05 5f 8b bc 5c 93 fb be d9 03 71 bf
       -0.0059219985 -0.017013082 -0.49135864 -0.94146496
000020 41 59 6c be fe fb 48 bf b9 05 1a bf a7 08 23 be
       -0.23080923 -0.7850951 -0.6016498 -0.1592127
000030 46 9e 6d 3e 17 4c 9d ba 04 ba 47 bf ef 88 79 be
       0.23204908 -0.0012000826 -0.7801821 -0.24368642
000040 19 d6 0e 3e 8f 7d 32 be 80 fa 77 be 71 bc ec be
       0.1394886 -0.1743071 -0.24216652 -0.4623752
000050 fb 10 4c be e7 e1 c5 be f9 d3 98 be a1 b0 88 be
       -0.19928353 -0.38648912 -0.29849222 -0.26697257
000060 4c ee ee be c0 27 2e 3e d5 a5 43 be 8e 2f c5 bd
       -0.4666618 0.17007351 -0.19106229 -0.09628211
000070 b7 b5 43 bf a9 2a c5 be 20 07 fb bd 1a 44 85 3d
       -0.7644915 -0.3850911 -0.12257218 0.0650713
000080 63 7a c2 bd 59 c1 e7 bd a7 d0 d0 be f8 dc 12 3e
       -0.09496 -0.11316175 -0.4078419 0.14342105
000090 d5 2b 39 3e 92 2f 45 be 8e a3 8d bd 0f 9e 3a bc
       0.18083127 -0.19256428 -0.06915961 -0.011390223
0000a0 33 0e 1d 3e 58 46 b9 be 05 c5 35 be ed a5 d1 bc
       0.15337448 -0.3618648 -0.17750938 -0.025591815
0000b0 24 c3 eb be 38 47 45 be 89 d7 98 be 73 5c 80 be
       -0.46047318 -0.19265449 -0.2985194 -0.25070533
0000c0 78 fe f0 be 6b b5 89 bd 4d 77 82 bd 94 95 66 bf
       -0.47069144 -0.06724056 -0.06370411 -0.9007199
0000d0 2f 37 e5 bc a9 51 68 be f4 7f fc 3e 15 c4 a3 be
       -0.027980415 -0.22687401 0.4931637 -0.31985536
0000e0 19 e6 12 be 96 31 26 bf 26 ba b8 be 90 c2 1c be
       -0.14345588 -0.6491941 -0.3607952 -0.15308595
0000f0 24 26 cd bc 1d 06 77 3e 0d 7d 36 bd e7 5a 5e be
       -0.0250426 0.24123426 -0.04455285 -0.21714364
000100 70 86 a2 be b3 88 92 3d f3 a3 0a 3e ea 87 9c bf
       -0.31743193 0.071549796 0.13539104 -1.2228978
000110 37 a0 e5 be 86 0f 29 bc d1 df cb be ec a2 e7 be
       -0.44848797 -0.0103186425 -0.39819196 -0.45241487
000120 f4 94 30 be da 11 26 3d 67 e6 29 be 69 27 b8 3d
       -0.17244321 0.04054437 -0.16591798 0.08991892
000130 60 ee 4f bd 6f dd cc bd ed 3d 0d bf 4d b8 6f be
       -0.05076444 -0.100031726 -0.55172616 -0.23410149
000140 24 9f 2c be 0e 36 b5 be 9f 28 a6 3e 48 27 29 bd
       -0.16857582 -0.35392803 0.32452866 -0.041297227
000150 e2 10 b8 bd 09 6d c4 bd 68 f7 39 bf cb 1c 9d 3e
       -0.08987595 -0.09591109 -0.72643137 0.3068603
000160 eb 61 78 bd 13 23 2f be 68 5c cb be d9 81 d1 bd
       -0.060640257 -0.17103224 -0.39718938 -0.102298446
000170 2a ab c3 be 30 9a 61 be c5 1f 07 bf 6f 5d f0 3d
       -0.38216525 -0.22031474 -0.5278285 0.11736571
000180 16 41 d9 be 94 af 35 bf b9 92 17 bf 33 65 a2 be
       -0.4243247 -0.70971036 -0.59208256 -0.31717834
000190 37 e3 3e be 40 ab f1 be 22 d2 2a bf 78 f9 1a be
       -0.18641363 -0.47200966 -0.6672689 -0.15134227
0001a0 5d bb 94 be e5 2b 84 be 7d 70 34 be af 78 18 3e
       -0.29049197 -0.2581474 -0.17621036 0.14889787
0001b0 25 1d 2a be 42 a5 cb bd 74 c8 1e be bd b8 04 3d
       -0.1661268 -0.0994363 -0.15506154 0.032402743
0001c0 49 71 89 3d 07 c8 a6 be 31 71 49 be 6f 70 d5 be
       0.067110606 -0.32574484 -0.19672085 -0.41687343
0001d0 01 03 8c bf c0 ea fb be d9 10 56 be f4 f8 6a be
       -1.0938417 -0.49202538 -0.20904864 -0.2294653
0001e0 7f 9c 29 3e 74 ad 79 3e db 67 95 3d 60 91 0a bf
       0.16563605 0.24382573 0.072951995 -0.54128075
0001f0 77 47 c3 be 60 1f a9 be 64 9f 5f be f8 80 45 3d
       -0.3814046 -0.3303175 -0.21838146 0.048218697

decoder.1.running_mean f4 [128]
000000 4c 27 4e bd 8c bb 79 bd e6 33 43 3d 4a 8a ce 3d
       -0.050330445 -0.060969874 0.047656916 0.1008497
000010 bd ad b3 3d d5 1c 07 be 0b bc 4c 3d 83 57 5c 3d
       0.08773372 -0.13194592 0.04998402 0.053794395
000020 66 29 a2 bd a8 ae a1 3d 1f f5 5f 3d 77 18 26 3d
       -0.079180524 0.07894641 0.054677125 0.040550675
000030 03 71 df bd bb ac c6 bd de 2e 18 3d 2a f3 e8 3d
       -0.10910227 -0.097009145 0.03715407 0.11374505
000040 a4 e2 d7 bc c0 7d 24 bd c8 32 6d 3d ca 14 c5 bc
       -0.026353188 -0.040158987 0.057909757 -0.024057765
000050 3a 41 c8 3d 0f 58 fd 3d 02 2a 47 be 4f 47 7b 3d
       0.09778066 0.123703115 -0.19449618 0.061347302
000060 e7 6f 77 bc b4 55 de bd e4 56 9b 3d 52 66 ff 3c
       -0.015102363 -0.1085619 0.075849324 0.03117672
000070 b4 e5 98 3d 76 d5 36 3d 24 3d 95 bd 81 6b a1 3d
       0.074656874 0.044637166 -0.07287052 0.07881833
000080 eb 9f 92 3b c9 10 b4 3d 5b 94 5c bc 30 e4 ad bd
       0.00447463 0.08792264 -0.013463105 -0.08490789
000090 a1 44 18 bc ef 3a 70 bd 75 66 08 be 54 94 16 3e
       -0.009293706 -0.058649953 -0.13320334 0.1470502
0000a0 cb 9b 3c be cd cb 9d 3d 5b cc 8f 3c 85 d1 4d 3d
       -0.18418805 0.077048875 0.017553499 0.05024864
0000b0 ea a7 88 3c 26 38 0e 3b 9a 01 02 bd cf 75 13 be
       0.01668163 0.0021700948 -0.03173981 -0.14400409
0000c0 f3 1d 7e 3d 5d b7 a7 3c ca 86 02 be fe 6e 5e bc
       0.06204028 0.020473177 -0.1274673 -0.013576267
0000d0 84 69 e5 3d 9b 85 19 be 30 bd c2 bc 72 b0 30 3d
       0.11201766 -0.14992373 -0.023771852 0.04313702
0000e0 e2 d1 ce 3d 82 7b d9 3c f2 d1 00 3e c3 1f cf bd
       0.10098626 0.02654815 0.12580088 -0.1011348
0000f0 93 c7 a9 bd dc dc 48 bd bd be a1 bd 2b fb 79 3d
       -0.08290019 -0.049038753 -0.078977086 0.061030548
000100 5b 2d af 3d 5e 0a ad bd 3d b7 da bd 45 67 58 3d
       0.08553573 -0.08449243 -0.10679481 0.05283286
000110 32 e5 99 3c cc b2 0f bd 53 8e a9 bc 1e 2d 3f 3e
       0.018786047 -0.035082623 -0.020697748 0.18669555
000120 bd 95 53 bd 38 d5 c3 3d ac 24 c0 3d e1 fe 81 bd
       -0.051656473 0.095621526 0.093819946 -0.063474424
000130 95 2c 1c bd ad 88 8a bd 61 9b fb bd 50 42 80 3c
       -0.038128454 -0.0676435 -0.122854955 0.01565662
000140 52 84 c7 3d 67 bf 72 bc 4a b4 ae bd 4c 4d 98 bd
       0.09742035 -0.014816142 -0.08530481 -0.07436618
000150 a4 4b a3 bd 01 8c 7d bd 09 d9 26 3d 0e 5c 1e be
       -0.07973412 -0.061901096 0.040734325 -0.15464804
000160 19 da 98 3d d6 8a 2d bd 77 bc 92 3d b2 15 90 bc
       0.07463474 -0.042368732 0.07164853 -0.01758847
000170 d4 6e 43 bd b7 02 b9 bc 97 a6 fe bd bd 5b ac 3d
       -0.047713116 -0.022584302 -0.12434118 0.08415935
000180 e3 06 24 bd aa 5b b6 3d 97 00 99 3c 03 09 ea bc
       -0.04004563 0.08904202 0.01867704 -0.02856875
000190 29 26 06 3e a0 87 9d 3b a8 8b cd 3d ea 2b 7c bd
       0.13100494 0.0048074275 0.10036403 -0.061565317
0001a0 e1 72 f7 bd 57 2d 1b be 46 f5 00 be fa 7f aa bc
       -0.12082458 -0.15154015 -0.12593564 -0.020812977
0001b0 03 6d 72 3c 04 a2 e5 3c f9 91 a1 3d f0 82 da bd
       0.014796498 0.028031357 0.0788917 -0.106695056
0001c0 e5 78 91 bc 9d 15 9e 3c f1 e7 54 3b 8f de 6d bd
       -0.017757842 0.019297415 0.003248688 -0.058073577
0001d0 e1 4e 94 3c 90 dd 2e 3d 04 33 15 bd 26 4e 26 3d
       0.018104019 0.042691767 -0.036425605 0.040601872
0001e0 0b 76 ab 3d 0a 22 60 3c 11 f7 1d be 2c ec 8c bd
       0.08372124 0.013679991 -0.1542628 -0.06880984
0001f0 c2 65 5b 3d b9 4e 02 be ec 1e b4 3d d6 71 80 3d
       0.05356384 -0.12725343 0.087949604 0.062717125

decoder.1.running_var f4 [128]
000000 00 2f f6 3e 80 14 e4 3e f9 bd 17 3f fc 18 11 3f
       0.48082733 0.4454689 0.5927425 0.5667875
000010 a9 69 03 3f c8 67 48 3f c8 33 95 3f 43 89 95 3f
       0.513331 0.7828336 1.1656427 1.1682514
000020 e0 04 32 3f ae d8 20 3f 3b e6 a7 3f 4d d9 07 3f
       0.6953869 0.62830627 1.3117136 0.5306595
000030 bd 4a f4 3e ab a3 3d 3f ac e7 9b 3f 1a bb f1 3e
       0.4771327 0.7407786 1.2180076 0.4721306
000040 9b 8a e0 3e a1 6a 10 3f 89 93 0f 3f 1e 45 03 3f
       0.43855748 0.564127 0.56084496 0.5127734
000050 f2 b4 0a 3f 19 77 23 3f ff ca a8 3f 84 9e 12 3f
       0.5418235 0.63853604 1.318695 0.57273126
000060 67 49 0f 3f 6f a5 6e 3f ae de 0f 3f 60 63 96 3f
       0.5597138 0.9322118 0.5619916 1.1749077
000070 e8 d5 86 3f 43 3e 3c 3f 98 7f ae 3f 2b c2 21 3f
       1.0534029 0.73532504 1.3632689 0.631869
000080 60 66 e5 3e b2 40 3b 3f f3 88 3c 3f 04 f2 71 3f
       0.44804668 0.7314559 0.7364647 0.9450991
000090 fb d3 09 3f 10 ce 34 3f c6 a6 ff 3e e6 02 60 3f
       0.5383908 0.70626926 0.49931926 0.8750442
0000a0 ad a1 0b 3f 36 ba 21 3f 34 29 17 3f 2d a8 97 3f
       0.5454357 0.6317476 0.59047246 1.1848198
0000b0 cd dd 2d 3f 86 60 30 3f 5c 8a 4b 3f 86 ec 0c 3f
       0.67916566 0.68897283 0.79507995 0.55048406
0000c0 7e 0d 5c 3f 41 55 1e 3f 0d e2 0a 3f 2a fc d2 3f
       0.8595809 0.6184884 0.54251176 1.6483204
0000d0 a0 99 2a 3f 43 1a 8c 3f 10 4f 86 3f b6 78 18 3f
       0.66640663 1.0945514 1.0492878 0.5955919
0000e0 c4 a8 1b 3f c1 04 02 3f 77 38 80 3f 28 12 da 3e
       0.6080439 0.50788504 1.0017232 0.42591977
0000f0 f6 68 07 3f 4e 63 5d 3f 4f 08 54 3f 1d ef da 3e
       0.5289453 0.8647965 0.8282518 0.42760554
000100 05 e7 16 3f f4 b6 af 3f c5 3b 28 3f 4e 81 9d 3f
       0.5894626 1.3727708 0.657162 1.2305086
000110 39 0c 2c 3f 59 0c 4a 3f 90 d3 16 3f 53 e2 04 3f
       0.6720615 0.7892509 0.5891657 0.51907843
000120 80 dc fb 3e bd 42 f2 3e 14 fd 21 3f 14 b1 ed 3e
       0.49191666 0.47316542 0.6327679 0.46424162
000130 ae 02 1e 3f 3e ac fd 3e 71 55 a4 3f 7a f0 66 3f
       0.6172284 0.49545473 1.2838575 0.9021069
000140 a8 31 50 3f a0 46 57 3f 88 eb 9d 3f a1 94 cc 3f
       0.8132577 0.8409214 1.2337503 1.5982858
000150 64 91 31 3f 5b 6c 0e 3f d2 ab 84 3f 4b d4 2f 3f
       0.69362473 0.5563409 1.0364935 0.6868331
000160 c6 1b 70 3f d7 35 0a 3f 30 08 3e 3f 4b 15 81 3f
       0.9379238 0.53988403 0.74231243 1.0084623
000170 77 69 2d 3f d8 ce 15 3f 36 76 70 3f bf e5 aa 3f
       0.6773905 0.58518744 0.93930376 1.3351363
000180 9e b2 0e 3f d9 be 81 3f b6 ee 12 3f 6a 62 72 3f
       0.557413 1.0136367 0.57395494 0.9468142
000190 55 df d7 3e b9 08 51 3f 1a 0c a8 3f 78 4a 11 3f
       0.42162576 0.81653935 1.3128693 0.56754255
0001a0 db 4c 85 3f 29 a9 24 3f 04 53 13 3f 2f d2 d2 3e
       1.041408 0.6432062 0.57548547 0.41175982
0001b0 e0 ac 1e 3f 02 a6 fc 3e ef 8f 11 3f d6 6b 7d 3f
       0.61982536 0.49345404 0.5686025 0.9899267
0001c0 ff 62 27 3f f0 a5 8d 3f 41 b9 06 3f dd 53 1d 3f
       0.6538543 1.1066265 0.52626425 0.6145609
0001d0 d0 57 91 3f 88 94 12 3f d8 72 e7 3e 9b 81 2f 3f
       1.1354923 0.5725789 0.45204806 0.6855714
0001e0 ee 6a e5 3e a4 4b 10 3f aa 04 83 3f 61 d3 15 3f
       0.44808143 0.5636542 1.0235798 0.58525664
0001f0 02 75 09 3f a0 b2 fa 3e b9 a9 37 3f 3a 4f f0 3e
       0.53694165 0.48964405 0.7174335 0.46935445

decoder.3.weight f4 [128, 64, 3, 3]
000000 d8 f3 37 3d df 51 31 be 0e 83 db bd 90 45 86 3e
       0.044910282 -0.17316388 -0.10718356 0.26224947
000010 77 35 fc ba eb bd c6 3d 89 17 e1 bd 53 da 2b bd
       -0.0019242008 0.09704193 -0.10990817 -0.041956257
000020 83 ba 77 bd 12 7c f1 bc 2f 50 8b 3d de f9 e7 bb
       -0.060480606 -0.029478107 0.06802403 -0.007079347
000030 b2 c9 84 bd 65 41 cc bd e3 cd 50 3e 0c fb b3 3d
       -0.06483783 -0.099734105 0.2039104 0.08788118
000040 b9 00 17 3e 9e 88 0d be 5f ea 31 3d f1 e3 8c 3c
       0.1474637 -0.13821647 0.043436404 0.017198535
000050 71 6a 1c bd 67 e0 39 3d 12 ce 51 bc d3 0c 62 3e
       -0.038187448 0.045380022 -0.012805479 0.22075205
000060 f3 ee 7c 3d 1c a3 9b 3d b2 2d 14 3e b6 ce 3e 3d
       0.061751317 0.0759947 0.14470556 0.046583854
000070 2e ea 92 3d 86 d2 38 bc 8f 8c 19 be b6 d4 2f be
       0.071735725 -0.011280661 -0.14995025 -0.17170987
000080 30 06 99 3d 40 ea 6c bd 7e 0b 56 3b b1 57 01 3d
       0.07471883 -0.057840586 0.0032660658 0.03157777
000090 f3 3e 8f bd 74 c5 85 bd 48 a9 12 3e 33 89 f1 3d
       -0.069944285 -0.06531802 0.14322388 0.11793747
0000a0 56 b0 0e 3d a0 9d 18 3e 3f 42 0c 3e 9a 14 b9 bd
       0.034836136 0.14903879 0.13697146 -0.090371326
0000b0 ed 6f fd 3d b7 df e4 bd d4 ab 0a bc 26 0b b2 3d
       0.12374864 -0.11175483 -0.008463819 0.08693533
0000c0 fc 6a 85 bd 9f f3 d1 3d 7e 32 8d be ac 4d 95 bc
       -0.06514546 0.10251545 -0.27577585 -0.018225513
0000d0 6a 98 f8 bc 71 20 8e 3d 7c 61 ab bd af d7 28 be
       -0.030346114 0.069397815 -0.08368203 -0.16488527
0000e0 7e d9 ee 3d 49 cc 8d 3d 47 70 29 be 06 66 fd bc
       0.11662577 0.0692373 -0.16546737 -0.030932438
0000f0 f6 03 35 3e d8 34 06 be 86 8d b3 3d ed 68 6a 3d
       0.17677292 -0.13106096 0.08767228 0.05722897
000100 d7 9c 91 3d 3b 5d 0d be 77 92 9e be f1 73 da bd
       0.07109993 -0.13805096 -0.3097112 -0.10666645
000110 de cf 00 bf 53 f9 d5 bd cf f7 32 be eb 21 9f be
       -0.5031718 -0.104479454 -0.17477344 -0.31080565
000120 87 e5 cd 3d c6 0f 2b 3d 42 3b 6e bd 0a d3 25 3e
       0.100535445 0.04176309 -0.05816198 0.16193786
000130 b7 2b ad 3d 7e dd 8c 3e 1f 18 af 3d 94 00 20 3d
       0.084556036 0.27512735 0.085495226 0.03906305
000140 41 06 1e be e5 ff 81 bd 41 c0 de 3d 3b 33 bb 3d
       -0.15432073 -0.06347636 0.10876513 0.09140631
000150 1b ed 28 3e f3 f3 56 be a3 21 e7 be 17 f9 1f 3d
       0.16496699 -0.20991497 -0.4514285 0.03905591
000160 c9 bb 51 be 0c b9 39 3e 7f c2 3b be 4d 57 07 be
       -0.2048179 0.18136996 -0.18335913 -0.13216896
000170 03 fe e8 bd 31 8e 4c be 45 03 55 be 8f 41 30 be
       -0.11376574 -0.19976117 -0.20802028 -0.17212509
000180 d5 f1 4b bd c0 2b 35 be 0d ca ae 3e fb a1 bf bc
       -0.049791176 -0.1769247 0.34138528 -0.023392668
000190 31 a9 1a 3d 93 60 62 bd 01 75 81 3c 55 ad 97 bd
       0.03775901 -0.05526788 0.015802862 -0.07406107
0001a0 de 00 24 3e 1f 95 26 3d 7f 04 e6 3d 69 cd 80 3d
       0.16015956 0.040669557 0.11231326 0.06289179
0001b0 79 c9 e8 bd a8 b1 0c be 9e eb 69 be 82 fb e4 ba
       -0.11366553 -0.13739645 -0.22843787 -0.0017469975
0001c0 80 08 8f bc c8 38 20 3e d5 e8 36 be 41 0c c5 bd
       -0.017460108 0.1564666 -0.17862256 -0.09621478
0001d0 00 98 89 bd 5f af 15 bd 4f 98 0c bc cb b5 0b be
       -0.06718445 -0.0365442 -0.008581235 -0.13643567
0001e0 03 be 5c 3d 56 57 53 3e 50 24 42 3d 1f 2f 19 3e
       0.053892147 0.20638785 0.04739791 0.14959382
0001f0 82 c2 2b bd e6 ab 2b be 84 b6 aa bd 4b 04 88 3b
       -0.041933544 -0.16764793 -0.08335593 0.0041509024
000200 d8 e6 3b bd 7d c8 a0 3d fe b8 c6 3d 84 a4 4f be
       -0.045874447 0.0785074 0.09703253 -0.20277601
000210 2a 6c 38 be 3b 7b 03 3e e5 ef f5 bd 79 0e 84 bd
       -0.18010011 0.12839977 -0.12008647 -0.06448073
000220 d7 9b 09 3d 90 7a b0 bc 64 b8 e7 3d 9f 77 12 3e
       0.033595886 -0.021542817 0.113144666 0.14303444
000230 ea 1b 38 3d e9 3b 0c 3e 8d ff e2 bc 8a 45 51 3e
       0.044948496 0.13694729 -0.027709747 0.20436683
000240 07 0d 47 3d 24 d8 39 3e 6f af 96 bd 17 44 fa 3e
       0.04859641 0.18148857 -0.0735768 0.48880073
000250 e8 5f 4d 3d b5 ef 5e 3d ee 02 ce bc 74 55 dc 3d
       0.05014029 0.05442782 -0.025147881 0.107584864
000260 0c 3d e9 3c eb f0 5d 3d 73 3b 29 bd ae ab b6 3e
       0.028471492 0.054184835 -0.04131646 0.35677856
000270 94 38 67 be 96 5f 0c 3e 57 31 49 bd 57 d7 15 be
       -0.22580177 0.13708338 -0.04911932 -0.14632927
000280 c1 8f d1 bd 03 cb 7a 3d c0 69 ec bb e3 bd 88 ba
       -0.10232497 0.061228763 -0.007214755 -0.0010432567
000290 42 f5 23 be b0 59 88 3c cc 22 d6 3d 51 40 b9 3d
       -0.16011527 0.016644329 0.10455856 0.090454705
0002a0 63 c6 93 bb 7c 00 71 3b 7e 2f 43 be 99 ce 1c bd
       -0.0045097335 0.003677397 -0.19061086 -0.038282964
0002b0 77 d4 83 bc 7c 66 04 bd df 15 47 3d 4a 40 80 bd
       -0.016092522 -0.0323243 0.048604842 -0.06262262
0002c0 ea 4b 17 be d3 29 c6 3b c4 e4 e2 3d 2a a7 24 bd
       -0.14775053 0.0060474663 0.1107879 -0.040198483
0002d0 4b 8b 1c 3d f5 09 44 3e 5e d3 8c ba b6 c6 20 bc
       0.038218778 0.19144423 -0.0010744145 -0.009813001
0002e0 37 e3 7f be 28 8b ff 3d 07 8c e1 bd 72 46 0d bc
       -0.2498902 0.12477714 -0.11013036 -0.0086227525
0002f0 a8 da 1d be d4 ee c2 bc 1e cf 44 be 9c 9b 69 bd
       -0.15415442 -0.023795523 -0.19219634 -0.057033166
000300 59 07 2f 3e f5 50 e3 3d 36 89 58 3e 69 5b b2 bd
       0.17092647 0.11099426 0.21146092 -0.08708841
000310 1e 51 c0 3d 1a b3 98 3d 49 7f dd 3c 16 06 e3 be
       0.09390472 0.07456036 0.027038233 -0.4434058
000320 c7 bc c4 bd 43 e2 9e 3d 0e 66 4a be cf 3a 81 3c
       -0.09606319 0.07758 -0.19765493 0.015775112
000330 0a 6c a7 bd b9 45 16 3d 7e 96 74 3e f2 a4 73 bb
       -0.08174904 0.036687586 0.23885533 -0.0037177172
000340 58 e2 bb bd d2 ad 75 be b4 01 e6 bc 54 13 af bd
       -0.09174031 -0.23992088 -0.028076984 -0.085486084
000350 d5 63 c2 3c 37 8d 8f be 28 d6 52 be 71 bf a0 be
       0.023729244 -0.28037426 -0.20589507 -0.31396058
000360 0e b9 e5 bd 94 64 78 bd f9 3b 2f 3e a5 0f c9 bc
       -0.11216937 -0.060642794 0.17112722 -0.024543593
000370 b6 83 ae bc 2c 95 c3 3d 8a c1 58 be 82 73 18 be
       -0.021303039 0.09549937 -0.2116758 -0.14887813
000380 e9 2e 06 be 85 0f b4 3d 3a 55 34 3d 41 e1 48 be
       -0.13103832 0.087920226 0.04402659 -0.19617178
000390 64 49 51 3d 78 8a 8c be b5 aa 95 3d 11 a1 38 be
       0.05109538 -0.27449393 0.073079504 -0.18030192
0003a0 95 8d ad 3d d9 14 63 be b0 11 4a be 6e 86 50 be
       0.0847427 -0.22175921 -0.1973331 -0.20363781
0003b0 a2 f7 cd bc 87 13 d7 bc a1 27 3d bd d6 da 90 3d
       -0.025142495 -0.026254429 -0.04618037 0.0707299
0003c0 c0 34 f5 bc 47 aa a7 bd 7c aa ef bc 64 05 1e bd
       -0.02993238 -0.08186775 -0.029256098 -0.03857936
0003d0 45 c4 bf 3d bb ec b7 bd b6 f7 df 3c 30 ef 83 bc
       0.09363607 -0.089807 0.027339797 -0.016105264
0003e0 e7 65 1b 3d db b9 96 3e 55 06 66 bc cf 9e f7 3d
       0.03793898 0.2943867 -0.014039596 0.12090837
0003f0 ab 44 1c 3d fb db 89 bb 8c 1e 4b bc 02 2d 2b bc
       0.038151424 -0.004207132 -0.01239742 -0.010447742

decoder.3.bias f4 [64]
000000 14 e4 38 bc 57 3d 23 ba 92 cc 57 3c 78 b8 aa bc
       -0.011284847 -0.0006227097 0.013171332 -0.020839915
000010 3b 12 53 3c aa 0b 4a bc 9c 9a d3 bc 60 c7 85 bc
       0.012882764 -0.0123318825 -0.02583056 -0.016330421
000020 d7 78 a4 3c ff d4 98 3b 5b 3a fe bb 73 0e b6 3c
       0.020077152 0.004664063 -0.0077584214 0.022223687
000030 49 88 ce bc b3 f8 99 bc 9d 48 81 3c 7f 0b bb bc
       -0.02521147 -0.018795347 0.015781695 -0.02283263
000040 7a ff 67 3c 4b 3f cc bb 9f 5f e3 bb 50 4c 8a bb
       0.014160031 -0.006233131 -0.006938889 -0.004220523
000050 09 c1 d1 3c db 21 a0 3c 6e dd 8c bc 24 8e 89 3c
       0.025604742 0.019547394 -0.01719543 0.01679141
000060 56 9a c9 3c 50 57 43 bc 0a 65 8e 3c 41 96 c6 3b
       0.024609726 -0.011922672 0.017382164 0.006060392
000070 a0 5c c8 3c 74 99 99 bc c6 27 bb 3a 3a e6 cd bc
       0.02445823 -0.01874993 0.0014278821 -0.025134195
000080 fe 17 c7 3c be b9 6e ba c5 5b c2 3c 45 85 1e bc
       0.024303433 -0.0009106657 0.0237254 -0.009675329
000090 91 1e 5a 3c d1 c5 ac 3b 21 4e 37 ba 77 08 3b bc
       0.013312952 0.005272605 -0.0006992538 -0.011415592
0000a0 e2 b6 ba 3c ec 98 09 bb 01 47 92 3c b5 86 43 3b
       0.022792283 -0.002099569 0.017856123 0.002983493
0000b0 3d e0 60 bc 2a 68 64 bc 02 24 2f bc 94 f2 de 3b
       -0.013725338 -0.01394085 -0.010689737 0.00680382
0000c0 e3 e1 8a bc c0 0f 8b bc 03 3a 0d bc ea be 4b bc
       -0.016953414 -0.016975284 -0.008619788 -0.012435654
0000d0 ca 36 89 3c 30 eb d5 3a 9c 9d 0d 3c a1 83 2a bc
       0.016749758 0.0016320702 0.008643534 -0.010407359
0000e0 dd 7c 6c 3c 21 a1 66 3c 57 99 80 3c ef 00 52 3c
       0.014434067 0.014076502 0.015698118 0.012817605
0000f0 db 81 ed bb 5d 5b 29 bc 40 28 8f b8 c0 b9 2e 3a
       -0.007248146 -0.010336724 -6.8262685e-05 0.0006665252

decoder.4.weight f4 [64]
000000 00 32 0a 3f bf a9 2d 3f b5 7c 06 3f 9c 1a 22 3f
       0.53982544 0.67837137 0.5253404 0.6332185
000010 46 0f 11 3f e4 4d 3c 3f 89 7c cf 3e a1 b5 1f 3f
       0.5666393 0.7355635 0.405247 0.6238652
000020 2d 25 22 3f 45 b9 03 3f 28 b2 04 3f 7d e1 30 3f
       0.63337976 0.51454574 0.51834345 0.6909407
000030 31 d9 0c 3f d5 62 2f 3f 69 a9 fe 3e 8f a4 03 3f
       0.5501891 0.6851018 0.49738625 0.5142297
000040 2b 07 fa 3e f6 be 4e 3f 59 9e 2a 3f 50 b3 0e 3f
       0.48833594 0.80760133 0.6664787 0.5574236
000050 e5 b5 e5 3e 05 1c 06 3f 02 aa 1d 3f 36 f0 12 3f
       0.44865337 0.52386504 0.61587536 0.5739778
000060 0f 59 37 3f a2 ea e0 3e e5 56 03 3f a8 e1 40 3f
       0.7162027 0.4392901 0.51304466 0.75344324
000070 77 4c 15 3f 0f 3d 47 3f 04 c5 18 3f e9 e4 dd 3e
       0.583198 0.77827543 0.5967562 0.43338707
000080 c2 5f 55 3f 30 ea 16 3f 08 d0 fb 3e 77 cf 26 3f
       0.8334924 0.5895109 0.49182153 0.65160316
000090 59 a0 f4 3e 84 f1 d6 3e 7b 1e 29 3f 52 43 15 3f
       0.47778586 0.41981137 0.66062135 0.5830585
0000a0 a4 b8 06 3f 9d 36 fe 3e 08 df 0e 3f 94 a9 18 3f
       0.5262549 0.49651042 0.5580907 0.59633756
0000b0 63 9b 16 3f 28 a4 ca 3e 00 36 25 3f 93 e1 19 3f
       0.5883085 0.39578366 0.6453552 0.60109824
0000c0 38 74 25 3f 41 dc 0c 3f ff 6d 43 3f bb 36 25 3f
       0.6463046 0.5502358 0.76339716 0.6453664
0000d0 a3 ab 06 3f 13 d1 0c 3f d9 da 2c 3f fa 79 08 3f
       0.52605647 0.5500652 0.67521435 0.5331112
0000e0 5d f3 3e 3f 8e 81 ef 3e 3d 9f e4 3e 86 7d 24 3f
       0.7459009 0.4677853 0.4465274 0.64254034
0000f0 b2 d9 ca 3e 19 73 28 3f a5 fd 16 3f e8 22 ee 3e
       0.39619213 0.65800625 0.5898078 0.46511006

decoder.4.bias f4 [64]
000000 af 2d 5a be 43 48 4b be f4 d8 93 be e7 06 e7 bd
       -0.2130649 -0.19851784 -0.2887646 -0.112806134
000010 ed 0f c7 3c 9f 17 93 bd da ed 90 bd 7e e7 39 3d
       0.024299586 -0.0718224 -0.070766166 0.045386784
000020 63 44 82 3d a3 72 ae bd 48 55 29 be 7e c3 c7 bd
       0.063607 -0.08517959 -0.16536438 -0.09754084
000030 5a cc 9a bd fc 55 46 3d 77 4a 0c bd 51 7b 3c ba
       -0.07558508 0.048421845 -0.034250703 -0.00071900064
000040 ba ab 2e be af a1 3f be 2b fc fd bc 21 95 9e bd
       -0.17057696 -0.18714021 -0.031004032 -0.07743288
000050 fe ea b5 3d b3 b1 8c be 6f 49 f5 bc e1 97 a0 be
       0.08882712 -0.27479324 -0.029942242 -0.31365874
000060 8c f5 5b be 1b d7 90 3d 48 4e e8 bc 3a 26 04 bd
       -0.21480387 0.07072278 -0.02835764 -0.03226302
000070 29 22 f0 be c0 ed 9c bd 4e 5d f7 3c aa f7 dc bd
       -0.46901062 -0.07662535 0.030195858 -0.10789426
000080 4c a5 c4 bd 11 b0 83 3d 67 33 7d be cb c3 0d 3d
       -0.096018404 0.064300664 -0.2472664 0.03461055
000090 c1 f3 5a be fc a1 6a bd d8 41 3b bd 7c 6b c9 bd
       -0.21382047 -0.057283387 -0.04571709 -0.09834954
0000a0 66 65 0f bf be 95 61 be bf 60 ea bd 73 ce 97 bd
       -0.56014097 -0.22029778 -0.11444234 -0.07412424
0000b0 2f db c0 be aa 15 46 be 16 fc bb bd 9f cd 81 3d
       -0.37667224 -0.19344202 -0.09178941 0.06338047
0000c0 70 f5 9b be 4c a1 6f 3e 80 f6 96 be e6 9d 4e 3d
       -0.3046069 0.23401374 -0.2948494 0.050443552
0000d0 1c e2 fb be ce 4c 91 be 16 4f a8 bc 63 53 37 be
       -0.49195945 -0.2837891 -0.020545524 -0.17902903
0000e0 f0 0a 1f be 71 10 85 be da b2 e0 bd a0 3c c1 be
       -0.15531516 -0.25989106 -0.10971613 -0.37741566
0000f0 ac 72 49 be 50 58 55 bf 97 f3 89 be 97 5f 01 be
       -0.1967265 -0.8333788 -0.26943657 -0.12634121

decoder.4.running_mean f4 [64]
000000 cd b9 28 bf 0c b3 5d be c9 36 23 3f ae ea 0d be
       -0.6590851 -0.21650332 0.6375547 -0.13859054
000010 dd c6 43 be ef ef 2a 3e e7 95 0d bf 88 9b ba be
       -0.19118829 0.1669309 -0.5530686 -0.36446786
000020 3e c9 e8 3d 17 11 d3 be c9 10 37 be 07 e2 a8 be
       0.11366509 -0.41223976 -0.17877497 -0.32984945
000030 63 63 20 bf ff 85 b0 3e ab 9f 8d bd 5c b0 38 be
       -0.6265165 0.3447723 -0.0691522 -0.18036026
000040 8e 28 6e 3e a7 43 49 bf b7 a5 91 be c3 c2 1a be
       0.23257658 -0.78618854 -0.28446743 -0.15113358
000050 32 c3 42 be 43 e9 e3 3d 80 de 8b be 0c f2 59 be
       -0.19019774 0.111284755 -0.27318192 -0.2128374
000060 fd 62 84 bf 62 47 aa be 4e 12 0f be 25 59 74 bf
       -1.0342709 -0.33257586 -0.13971826 -0.95448524
000070 26 db 33 be bb 81 7d bf fe c8 86 bd 42 b9 a8 be
       -0.17564067 -0.9902608 -0.06581305 -0.3295384
000080 b0 98 bd be a8 bd 9b be c7 b8 1d be 65 39 0f bf
       -0.37030554 -0.30418134 -0.15402518 -0.5594695
000090 7a 45 26 3c 67 29 93 be a4 96 bb be 23 6d 50 3d
       0.0101484 -0.28742525 -0.36638367 0.05088533
0000a0 58 2e 12 bf 77 7f 54 be 6a 12 4f 3e 60 d2 86 be
       -0.57101965 -0.20751749 0.20221868 -0.26332378
0000b0 c2 bd 02 3f 47 14 1a 3e 05 d6 e3 3c a2 3d c2 3d
       0.510708 0.15046798 0.027812013 0.09484412
0000c0 f3 c8 14 be bf 28 6e be ea 19 eb be ac 0a 83 3c
       -0.14529781 -0.23257731 -0.45918208 0.0159963
0000d0 5e 4c c6 3e 10 ca d9 be 22 c1 f0 be a9 ce 87 be
       0.3873014 -0.42536974 -0.4702235 -0.26524857
0000e0 60 8d 6a bf d7 43 fe be 00 14 bb 3b de 8c c0 3e
       -0.9162197 -0.49661133 0.0057091713 0.37607473
0000f0 54 19 fa bc 33 fe 92 be 62 1a 42 3e 64 75 ed bd
       -0.030529656 -0.28709564 0.18955377 -0.11594656

decoder.4.running_var f4 [64]
000000 ed e7 5e 3f e3 63 4d 40 3d 4a c3 3f d9 a6 83 40
       0.8707264 3.2092216 1.5257031 4.114117
000010 5a 64 31 40 bb 92 6c 40 05 8a b3 3f 19 60 b9 3f
       2.77175 3.6964557 1.4026495 1.4482452
000020 4d 95 98 3f 20 4b 0f 3f 46 59 2b 3f 2e e2 66 40
       1.1920563 0.55974007 0.66933095 3.607555
000030 14 76 78 3f 91 ae b8 40 0a 3b 73 3f c4 d2 87 3f
       0.9705517 5.7713094 0.9501196 1.0611196
000040 c6 66 77 3f 6d 34 13 40 a2 a1 8c 40 a6 4a 5f 3f
       0.96641195 2.3000748 4.3947306 0.8722328
000050 89 05 a1 3f ae 82 85 3f f6 cb 37 3f 0b bd 13 3f
       1.2579814 1.0430505 0.71795595 0.5771033
000060 15 89 19 40 a4 28 26 3f 42 41 23 3f c0 bb 16 40
       2.3989918 0.6490576 0.6377145 2.3552094
000070 a7 e6 c4 3e 79 06 06 40 09 24 26 3f cd 68 f8 3e
       0.38457224 2.094145 0.64898735 0.48517457
000080 fc 15 b9 3f 4b 05 84 3f 98 7e 07 3f 4f ba 74 3f
       1.4459834 1.0314115 0.5292754 0.95596784
000090 1d 24 02 3f b9 9d 4c 3f dc d1 74 40 53 85 67 3f
       0.50836354 0.79928166 3.8253088 0.9043781
0000a0 82 80 2e 3f f5 09 fd 3e 68 57 9c 3f 6c 2c 67 3f
       0.6816484 0.4942166 1.2214174 0.9030216
0000b0 2b 01 0a 40 39 3f 0d 3f 56 12 a9 3f bf 9c 83 3f
       2.1563213 0.55174595 1.3208721 1.028221
0000c0 da 26 91 40 16 2d ae 3f 0f 38 57 3f 95 c1 8e 3f
       4.5359926 1.3607509 0.84069914 1.1152827
0000d0 2b 14 1e 3f 68 6c 2d 3f 43 e3 bf 3f 99 1a f5 3e
       0.61749524 0.6774354 1.499123 0.47871855
0000e0 cc 8a 45 40 2d 31 2c 3f 06 1a 84 3f ff dc 8e 40
       3.0865965 0.67262536 1.0320442 4.464477
0000f0 83 90 25 3f d5 f8 ce 3e c5 db 58 3f 3a 19 2d 3f
       0.6467363 0.4042422 0.8471034 0.6761662

decoder.6.weight f4 [64, 32, 3, 3]
000000 70 d5 14 be 3a d7 ed 3e 58 3b 46 be e7 55 eb 3d
       -0.14534545 0.46453267 -0.19358575 0.11490994
000010 e8 fc 5a bd c4 2c bc bd 93 52 c1 bd aa 12 12 3f
       -0.053463846 -0.09188226 -0.09439578 0.5705973
000020 29 6e aa bc 1d 37 70 bd 7b 81 ce bc dd 9a 0f 3e
       -0.020804482 -0.05864631 -0.025208225 0.1402392
000030 f7 24 db 3d c9 bf 08 3d 9c 8e 93 be 70 5a e7 bd
       0.1070041 0.033386026 -0.2881974 -0.112965465
000040 79 3d a7 be c2 29 87 bd a2 88 e2 ba 90 22 0e bd
       -0.32664087 -0.065997615 -0.0017283151 -0.03470093
000050 d7 0f a4 bd bf 7c 8c 3e ba 93 8d be 3d c1 c6 be
       -0.08010834 0.27438924 -0.2765177 -0.38819304
000060 7f d1 5d be a3 b1 4b be bd 11 ef 3d 94 6e f4 3d
       -0.21661948 -0.19891982 0.11673305 0.119351536
000070 dd 92 f2 bd 06 71 8a be b7 b5 64 bd e2 98 ca bd
       -0.11844418 -0.27039355 -0.05583736 -0.09892441
000080 b5 06 7b 3e 5e 23 37 3d f3 f9 50 bd 71 e1 3c 3e
       0.24514277 0.044711463 -0.05101962 0.18445374
000090 8d ec c8 bd 5f 1d 75 bd 40 23 05 3e 6c 8a 4e bd
       -0.098107435 -0.059842464 0.13001728 -0.050424978
0000a0 7f 59 53 bc a9 f4 ac bd 5a ae 20 bd 31 c4 c8 bc
       -0.0128997555 -0.08445103 -0.039228775 -0.024507614
0000b0 44 95 09 3e 4c 67 6f 3e 60 02 1e be 57 30 cb bd
       0.13435847 0.23379248 -0.15430593 -0.099213295
0000c0 87 26 0f bd 5b 9b a9 bd 5d 30 06 bd 9a 8a 59 3e
       -0.034948852 -0.08281585 -0.032760967 0.21244279
0000d0 3e 62 20 bd 7e ee 72 3d f3 8d 85 3d 49 e0 8e be
       -0.03915619 0.059309475 0.06521215 -0.2790549
0000e0 81 9b a8 bd 47 d4 8e 3d 1b e2 f5 3d 02 f5 a1 3e
       -0.08232785 0.069740824 0.12006017 0.3163224
0000f0 dd 9f 2b bd 24 21 33 be 9f 5f 80 bc 91 c2 11 3e
       -0.041900504 -0.17493111 -0.015670596 0.14234377
000100 32 d1 e9 3a 24 d7 20 3e 55 1b 71 bd e0 1c fb bc
       0.0017838834 0.1570707 -0.058863956 -0.030653417
000110 7a d4 84 3c c7 f0 b9 3d ae 2b 51 3e f6 19 b5 bd
       0.016214598 0.09079128 0.20426819 -0.08842842
000120 75 ce 3b 3d c4 d4 a9 3d d4 c5 af bd ec 57 cf 3c
       0.04585119 0.08292535 -0.085826546 0.02531048
000130 97 05 80 bd dc dc 56 3c 5f 1f c4 3d ac e9 06 3d
       -0.06251066 0.01311418 0.09576296 0.03293769
000140 f9 87 3e bc 6c 92 7a 3d 01 cd 15 bc c6 f2 5e be
       -0.011629098 0.061174795 -0.009143115 -0.21772298
000150 d0 c3 51 be 5d 18 d9 bc de 10 f6 bd 29 c8 64 bb
       -0.20484853 -0.026500875 -0.12014936 -0.0034909344
000160 f9 7e c9 bc 2d 8b 91 be 0c e2 3d be dc f9 91 3e
       -0.024596678 -0.28426495 -0.18543261 0.2851094
000170 f2 71 59 3d 8d 99 87 be b8 e8 29 3e 14 e7 07 3e
       0.053087182 -0.26484337 0.16592681 0.13271743
000180 64 e6 01 be 15 29 cb bd 2d 40 2b 3e a7 1e ea 3d
       -0.12685543 -0.09919945 0.167237 0.11431628
000190 c7 4f c1 bd 30 73 7b bd 37 58 62 bd 20 b0 34 be
       -0.094390444 -0.06138915 -0.05525991 -0.17645311
0001a0 7b d0 f8 3d fd 39 63 3d df dc 52 3d b6 f2 be 3d
       0.121491395 0.055475224 0.05148017 0.09323637
0001b0 5b b0 6e bd cf ae ed 3c ca b6 a3 bd 85 0f 5d 3d
       -0.058273654 0.02901402 -0.079938486 0.05396988
0001c0 25 2e 82 3e a8 02 33 3e cf 3a f2 bc 8d 6c 62 bd
       0.2542583 0.17481482 -0.029569058 -0.055279303
0001d0 93 74 6f 3e 5c 23 d6 3d a3 fc 12 be b2 ae eb bd
       0.23384313 0.10455963 -0.14354186 -0.1150793
0001e0 5d 7c 0c 3e 46 a3 a4 3d 7b 31 e4 bc 81 88 81 3e
       0.13719316 0.080389544 -0.027855625 0.25299457
0001f0 ef 95 ad 3e 4b e4 9b bd d3 0e 0d 3e c0 01 02 be
       0.33903453 -0.07611903 0.13775186 -0.1269598
000200 81 35 36 3d 98 f6 ce bd 3f 44 64 3d 74 cb 65 bd
       0.04448462 -0.10105628 0.055729147 -0.05610223
000210 23 2d 79 bc 2b 76 3c 3e 2f ad 92 3d 09 eb 41 3d
       -0.015208515 0.18404453 0.071619384 0.047343288
000220 0c f6 cd bc 1c bc 9b 3e e1 ae 7e be 93 67 9d 3b
       -0.025141738 0.30416954 -0.24871399 0.004803607
000230 57 b9 3f be ca 88 28 be 32 86 99 3d 87 a3 92 bd
       -0.18723045 -0.16458431 0.07496299 -0.071600966
000240 56 16 c0 3c 18 5b 83 3e bf 2e 7b 3e c7 25 41 3e
       0.02344815 0.25655437 0.24529551 0.18862067
000250 2b c3 4f 3d fd d9 00 3e d8 6f 27 3e a2 7f 88 3e
       0.050723236 0.12583156 0.16351259 0.26659876
000260 cc 57 f2 3d d2 bb 19 be 84 5d 9e 3d 2a 1d 43 3d
       0.11833152 -0.15013054 0.077326804 0.047635235
000270 2f f2 63 3e 2d 7c 78 3e 77 17 95 bc 57 f0 bd bd
       0.22260354 0.2426612 -0.018199665 -0.09274357
000280 df a9 de 3d 79 31 55 3e 75 4a 47 bd 1f 55 a4 bd
       0.10872244 0.20819654 -0.048654992 -0.08024048
000290 d2 64 76 be 2f fe 7f bc 2c e8 84 bd 14 e6 2a bd
       -0.24061897 -0.015624567 -0.06489596 -0.041723326
0002a0 9c e5 1f 3d 3e cf 80 bd 73 ac aa bc 29 b6 af bd
       0.039037332 -0.06289528 -0.020834183 -0.08579666
0002b0 d6 c2 1d be e9 7c a2 be ce d2 d2 be 17 fe 28 bd
       -0.15406355 -0.31735924 -0.41176456 -0.041257944
0002c0 d9 f4 1d bf e6 f0 90 3c 24 c6 11 3e a3 82 52 3b
       -0.6170173 0.017692994 0.14235741 0.0032121323
0002d0 36 9e 7c bd ec d4 95 3d d3 5b 1d 3e 13 4e b7 3d
       -0.06167432 0.07316002 0.1536706 0.08950438
0002e0 18 02 3a be 58 10 45 be 2c 59 0f be 78 12 78 bd
       -0.18164861 -0.19244516 -0.1399886 -0.06056449
0002f0 a5 b2 b4 bd c6 41 8f be dc e1 30 3e 5b d2 71 bd
       -0.08823136 -0.2797987 0.17273659 -0.0590385
000300 1b ed 26 be 6b 54 5b 3c a5 48 26 3c b0 23 d2 bc
       -0.16301386 0.013386826 0.010149156 -0.025651783
000310 5b 00 92 bd d9 43 6b 3e 8b 24 10 3e 27 54 4b bd
       -0.07128974 0.229751 0.1407644 -0.0496408
000320 0d 63 af bd e8 15 88 bd 1d ec f7 be 84 9c 54 3d
       -0.08563814 -0.06644803 -0.48422328 0.051907077
000330 cc 2a fd 3c af 65 8e bd b7 91 a2 bd 3b ca d0 3d
       0.030904196 -0.06952988 -0.07937949 0.101948224
000340 7f 61 87 bd 4a ca 60 be c0 8c d2 3d de 3b 0e be
       -0.06610393 -0.21952167 0.10280752 -0.13890025
000350 fc 23 9a be 40 cc 26 3e 08 d4 db 3b 9b e8 0d 3e
       -0.3010558 0.16288853 0.0067086257 0.13858263
000360 95 9f 94 bd 0b bc a2 3e 14 3a 41 3d ff 4d bf bd
       -0.07257 0.3178409 0.04717453 -0.093410484
000370 91 d5 6d 3d a2 d0 7c be 48 68 bd bd e0 70 c3 bd
       0.058065 -0.24688962 -0.09248406 -0.095430136
000380 85 00 98 bc df 27 7f 3d bb ab 94 bd 76 57 db bd
       -0.018554935 0.062293883 -0.072593175 -0.10710041
000390 46 c6 e1 3b 5b 06 8a bd 73 3a 52 be da de f3 3d
       0.006890091 -0.067394935 -0.20530109 0.1190774
0003a0 31 19 25 3e 6b ad 74 3d 22 ca fa bd 9e 9d 1e be
       0.16122891 0.059735697 -0.12245585 -0.15489814
0003b0 c3 8a 16 be 62 ec aa bd d7 f1 61 bd c3 ef b1 3e
       -0.14701371 -0.08345868 -0.055162277 0.34753236
0003c0 a4 7d 9c bd 0f 79 f7 3c 2a dd d1 3e f7 97 3c bd
       -0.076411515 0.030209092 0.40989047 -0.046043362
0003d0 06 0a 43 3d fa 70 0a bd 20 ac 01 3e ea b7 c7 be
       0.04761698 -0.03379915 0.12663317 -0.39007503
0003e0 d4 05 ea 3d 2a 49 23 3d ea e8 5d 3d ea 44 18 be
       0.11426893 0.039864697 0.054177202 -0.14870039
0003f0 31 52 c6 3e 91 4d c3 3d 45 45 bf bc c0 9d b4 3d
       0.38734582 0.09536279 -0.02334846 0.08819151

decoder.6.bias f4 [32]
000000 f2 32 00 3d 6e bf 5b 3b fd f0 c1 bc a3 e6 3b bc
       0.031298585 0.003353085 -0.023674482 -0.011468562
000010 53 b6 a0 3a 03 d6 91 3c 5e 6d 0c 3c 69 ff 23 3c
       0.0012261368 0.017802244 0.008570997 0.010009625
000020 6b db a1 bc 95 8b 25 3c 4a 53 ed 3c 82 40 9e bc
       -0.019757947 0.01010408 0.02897038 -0.01931787
000030 cb ec 1b 39 36 95 2b 3a 4d 3b a7 3a ac 5d d7 3c
       0.00014870164 0.00065453665 0.0012758762 0.026289783
000040 1f d0 bb bc 83 be 42 3b f7 41 12 3d ca 03 0d bd
       -0.022926388 0.0029715605 0.03570744 -0.03442744
000050 b0 77 ec bb 21 69 22 b8 6a fb 32 bc 1d 9a c5 bc
       -0.0072164163 -3.872172e-05 -0.0109242 -0.024121339
000060 db 5c a7 3c 06 3e 0d bd 8a e5 09 3d a0 5e e1 3c
       0.02043002 -0.03448298 0.03366617 0.027510941
000070 dd 7a 00 bc 87 75 15 3c cb 09 b2 3c 78 8a 03 3d
       -0.007841793 0.009122259 0.021733185 0.032114476

decoder.7.weight f4 [32]
000000 95 10 a9 3e b2 53 86 3e 86 71 b8 3e 35 8c 0a 3f
       0.33020464 0.2623573 0.36024112 0.5412019
000010 70 69 fe 3e c0 dc 06 3f c5 81 07 3f ac 0d e0 3e
       0.49689817 0.5268059 0.5293239 0.4376043
000020 1f 05 08 3f 69 7e bb 3e a2 aa b2 3e 25 ca c0 3e
       0.53132814 0.3661988 0.34895808 0.37654224
000030 21 6d d6 3e 42 62 ac 3e 95 8f a1 3e fb 8d f9 3e
       0.41880134 0.33668715 0.31554857 0.48741135
000040 d8 60 9b 3e d6 89 96 3e a6 9d cf 3e b3 af 9c 3e
       0.30347323 0.29402035 0.40549964 0.30602798
000050 2f 96 be 3e be 7e 99 3e 9b 60 9c 3e 1f 6a ad 3e
       0.37223956 0.2997951 0.30542454 0.33870026
000060 5d 33 8f 3e 13 26 bb 3e 1b 36 f9 3e d1 7a 99 3e
       0.27968875 0.36552486 0.48674092 0.29976514
000070 97 d7 82 3e 11 05 05 3f c7 62 99 3e d4 41 09 3f
       0.25555107 0.51960856 0.29958174 0.5361607

decoder.7.bias f4 [32]
000000 ad 41 ee bd f8 6b f5 bd 93 c1 e5 bd 54 5d b8 bd
       -0.116336204 -0.11983484 -0.11218562 -0.09002176
000010 19 d1 ca bd c3 0e 4c bd ab c4 a2 bd a0 3f dd bd
       -0.099031635 -0.049818765 -0.07947668 -0.10803151
000020 12 5a 73 bd 8c e3 b3 bd be 8f ca bd 55 08 15 be
       -0.05941207 -0.087836355 -0.09890698 -0.1455396
000030 66 a7 1e be 41 17 db bd 48 b9 dd bd 31 c8 d2 bd
       -0.15493545 -0.10697795 -0.10826355 -0.1029209
000040 21 91 c8 bd f7 c8 c9 bd 25 c4 0c be e0 2c db bd
       -0.09793306 -0.09852784 -0.13746698 -0.107019186
000050 d0 98 e4 bd ca 84 e2 bd c5 4e d5 bd c2 f6 c4 bd
       -0.11161959 -0.11060484 -0.10415415 -0.09617378
000060 03 74 a7 bd e9 61 0e be 48 ed f7 bd a9 fb ff bd
       -0.08176424 -0.13904537 -0.12105805 -0.12499172
000070 34 fd d5 bd 56 7e 7d bc 1a 11 d2 bd ef 29 ff bd
       -0.10448685 -0.015472015 -0.10257168 -0.1245917
