weights/encoder_weights.pth (torch, 392489 bytes, 20 tensors)

encoder.0.weight f4 [32, 3, 3, 3]
0	0xbf00b642	-0.50278103
1	0xbf1970ac	-0.5993755
2	0xbefe3ae0	-0.49654293
3	0xbd71d968	-0.059045225
4	0xbcc267ef	-0.0237312
5	0x3d872d1a	0.06600399
6	0x3cee7b99	0.02911167
7	0xbd682430	-0.056675136
8	0x3c4c59a8	0.012472548
9	0xbeabaee7	-0.33531877
10	0xbf906e1b	-1.1283602
11	0xbf188acb	-0.5958678
12	0x3e143a99	0.14475478
13	0x3c2e4bf9	0.0106382305
14	0x3cd3ce44	0.025855191
15	0x3d1ea147	0.038728025
16	0xbd643c46	-0.055721544
17	0x3e0384f3	0.12843685
18	0xbde447fb	-0.11146542
19	0xbed91ef4	-0.42406428
20	0xbe4ca00f	-0.19982933
21	0x3d505f4e	0.05087214
22	0xbd8668ce	-0.06562959
23	0xbd5e0aec	-0.054209635
24	0xbb24f275	-0.002516893
25	0xbdbe8b70	-0.09303939
26	0xbb24b85d	-0.0025134303
27	0xbbbba5ad	-0.005726537
28	0x3e00f681	0.12594034
29	0x3d8c0acc	0.06837997
30	0xbe47bbe9	-0.19505276
31	0xbded3088	-0.11581522
32	0xbdfac8e9	-0.12245352
33	0xbdc0178f	-0.093794934
34	0x3e24d2e0	0.16096067
35	0x3d2e44e1	0.042546157
36	0x3d1e2185	0.038606185
37	0xbd456776	-0.04819437
38	0x3cfc4cb0	0.030798286
39	0xbddb229f	-0.10699963
40	0xbdc6736e	-0.09689985
41	0xbe7aa48c	-0.24476832
42	0x3dfb8a5f	0.122822516
43	0x3e1dbafa	0.15403357
44	0x3e0950f4	0.13409787
45	0x3ceb68a8	0.028736427
46	0xbd822479	-0.06354613
47	0xbe150e3f	-0.14556216
48	0x3b83a4a3	0.004017429
49	0xbdb9a00b	-0.09063729
50	0xbe8eb3fc	-0.27871692
51	0x3e1c2039	0.15246667
52	0x3eb3f89c	0.3515061
53	0x3e492640	0.19643497
54	0xbc91d6a1	-0.017802538
55	0xbda8464c	-0.08216533
56	0xbd83ba6c	-0.064320415
57	0x3db1a3fc	0.08673856
58	0xbd9d4b7e	-0.076804146
59	0xbc7e35f1	-0.01551579
60	0xbe0131ba	-0.12616625
61	0xbd00fa4a	-0.031488694
62	0x3d3ae7fe	0.0456314
63	0x3d430f89	0.047622237
64	0xbd5e41ba	-0.0542619
65	0xbd246a9a	-0.040140726
66	0x3de423c2	0.11139633
67	0x3da13276	0.07870953
68	0xbd149b00	-0.036280632
69	0xbd9b2751	-0.075758584
70	0x3c063be7	0.008192993
71	0x3e1632af	0.14667772
72	0x3d9a0523	0.07520511
73	0xbd0dccd5	-0.03461917
74	0x3bd5479c	0.0065087806
75	0xbd524710	-0.0513373
76	0x3f0768b5	0.52894145
77	0x3f1a5d36	0.6029848
78	0xbe895bc6	-0.2682783
79	0x3ef96b25	0.48714557
80	0x3f759955	0.9593709
81	0xbdd0b001	-0.1018982
82	0xbe5a7cf1	-0.21336724
83	0xbea0406e	-0.31299156
84	0x3e17d6c2	0.14828017
85	0x3e180fcf	0.1484978
86	0xbd84861e	-0.06470893
87	0xbc0f330a	-0.008740196
88	0x3e4e8312	0.20167187
89	0xbd461050	-0.0483554
90	0xbc3c0fbc	-0.011478361
91	0xbcdc3c22	-0.026884142
92	0xbe73753d	-0.23775192
93	0x3e243412	0.16035488
94	0x3e9ba128	0.3039639
95	0xbc4a2cf8	-0.012339823
96	0xbb93759f	-0.0045001055
97	0x3e832fb0	0.2562232
98	0x3d9602ed	0.07324777
99	0xbddf72f2	-0.10910596
100	0xbe01682f	-0.12637399
101	0xbe7ee3b9	-0.24891557
102	0x3b2fa908	0.0026803631
103	0x3e287d57	0.16454063
104	0x3ce864d9	0.0283684
105	0xbade2e6c	-0.0016951091
106	0x3e1931c4	0.1496039
107	0xbdc56dd2	-0.09640087
108	0xbe524c41	-0.20536901
109	0xbc74d090	-0.014942303
110	0x3c625187	0.013813383
111	0x3dae010c	0.084962934
112	0x3e0984a0	0.13429499
113	0x3bca247d	0.0061689005
114	0x3da85072	0.08218469
115	0x3e15172b	0.14559619
116	0xbcc07cea	-0.023497064
117	0xbde04bf0	-0.10951984
118	0xbe05fffa	-0.13085929
119	0xbe273c83	-0.16331677
120	0x3dd54863	0.10414197
121	0x3d479551	0.048726384
122	0xbde2db56	-0.11076991
123	0xbdb92b2a	-0.09041436
124	0x3d18622d	0.037203003
125	0xbe459a3c	-0.19297117
126	0x3dcde2c4	0.10053018
127	0x3de6390a	0.11241348
128	0xbdc85de3	-0.097835325
129	0x3ef46bd8	0.47738528
130	0x3ed42fb3	0.41442642
131	0xbd9759aa	-0.07390149
132	0x3e14c854	0.14529544
133	0x3d613f67	0.054992106
134	0xbe506af8	-0.20353305
135	0x3d1ff06b	0.03904764
136	0xbd97f733	-0.074201964
137	0x3d215ca2	0.039394982
138	0xbe1206d3	-0.14260416
139	0xbe1b7a06	-0.15183267
140	0x3d279640	0.040914774
141	0x3ddaeff9	0.106903024
142	0x3de0f56a	0.10984309
143	0x3e929314	0.28627837
144	0xbd3ea4c1	-0.04654384
145	0xbd00d6f8	-0.03145501
146	0x3d924388	0.07141787
147	0xbdc69897	-0.09697073
148	0xbe74db2d	-0.23911734
149	0x3d0afac0	0.03393054
150	0xbce81def	-0.028334586
151	0x3c822758	0.015887901
152	0x3e971f76	0.2951619
153	0xbdfa5009	-0.12222297
154	0xbdaf39e7	-0.08555966
155	0x3e190743	0.14944176
156	0xbdae9881	-0.085251816
157	0xbe4ffc92	-0.20311192
158	0x3db26074	0.08709803
159	0xbd1b2c0f	-0.037883814
160	0x3e027116	0.12738451
161	0x3ea89215	0.32923952
162	0xbdfcc26f	-0.12341773
163	0x3da196a4	0.078900605
164	0x3c039906	0.008032089
165	0xbc2a22de	-0.01038429
166	0x3d944c99	0.07241172
167	0x3e607573	0.21919803
168	0x3d3ceb23	0.04612268
169	0x3e33ab81	0.17545892
170	0x3e8b2052	0.27173096
171	0x3c8c6252	0.017136727
172	0x3dc11070	0.09426963
173	0x3c908a03	0.017643934
174	0x3d2a27e5	0.041541953
175	0x3e91359a	0.28361207
176	0x3d0fccff	0.03510761
177	0x3e028c3d	0.12748809
178	0x3e76c688	0.24099171
179	0x3def8fef	0.11697375
180	0x3db4136a	0.087927654
181	0x3d865d7e	0.06560801
182	0xbd0c3212	-0.03422744
183	0x3d14d4b9	0.03633568
184	0xbdd22193	-0.1026031
185	0xbe655bdd	-0.22398324
186	0xbdd7b59d	-0.10532687
187	0xbe3eeeef	-0.18645833
188	0xbe6c3093	-0.23065405
189	0x3bda743e	0.006666689
190	0x3db064d9	0.08612985
191	0xbd306b83	-0.04307128
192	0xbdf00194	-0.11719051
193	0x3df86f35	0.12130586
194	0x3dddb164	0.1082485
195	0xbec7adb5	-0.38999715
196	0xbeea315c	-0.45740783
197	0xbe54cc1a	-0.20780984
198	0xbe06153c	-0.13094038
199	0xbbc67077	-0.0060558873
200	0x3d19ebc2	0.03757835
201	0x3ca54ef5	0.020179251
202	0x3dc78663	0.09742429
203	0x3d5f0c96	0.054455362
204	0xbe97c176	-0.29639786
205	0xbe76def9	-0.24108495
206	0xbd814630	-0.06312215
207	0xbd962111	-0.07330526
208	0x3cf0ad63	0.029379552
209	0x3dd0b089	0.101899214
210	0x3df24612	0.11829771
211	0x3e440ed4	0.19146281
212	0x3e6f7955	0.23386128
213	0xbe19d21c	-0.15021557
214	0xbcf31180	-0.02967143
215	0xbd364d2c	-0.04450719
216	0xbd64b15b	-0.0558332
217	0xbd976f70	-0.07394302
218	0x3cfbbcbc	0.030729644
219	0xbdf544f8	-0.11976045
220	0xbed98191	-0.42481664
221	0xbee5c7c5	-0.44878975
222	0x3dc17c5e	0.09447549
223	0xbedc8e75	-0.43077436
224	0xbf094a12	-0.5362865
225	0x3e0d51f0	0.13800788
226	0x3dc4b28f	0.0960437
227	0x3de7b045	0.113129176
228	0x3d804b26	0.062643334
229	0x3d5bdee4	0.053679362
230	0x3bd730f8	0.006567117
231	0x3db73e40	0.0894742
232	0xbd9d932b	-0.07694086
233	0xbe32d18a	-0.17462745
234	0x3db1dc9c	0.08684656
235	0x3df1b02b	0.118011795
236	0x3c5548a7	0.01301781
237	0x3d6054af	0.05476826
238	0x3d3c96e6	0.046042345
239	0xbd602c96	-0.05473002
240	0x3e2656bd	0.16244026
241	0xbd6bc2b8	-0.057558745
242	0xbd2fb507	-0.04289725
243	0xbe65de0a	-0.22447982
244	0xbe22faff	-0.1591606
245	0xbd2ba76b	-0.04190771
246	0xbdca1719	-0.09867687
247	0x3e396299	0.18104018
248	0xbcbd1988	-0.023083463
249	0xbd6877ad	-0.056754757
250	0x3e329917	0.17441212
251	0xbca7f51c	-0.02050262
252	0xbe15cfb4	-0.14630014
253	0x3d3371f7	0.043809857
254	0xbd8b0baa	-0.06789334
255	0xbdbec843	-0.09315541

encoder.0.bias f4 [32]
0	0xbd9fac02	-0.0779648
1	0xbd563109	-0.052292857
2	0xbc6ec220	-0.01457265
3	0x3d067fb9	0.03283665
4	0x3dba173d	0.090864636
5	0x3d2f8cd7	0.042858925
6	0xbd6aa7a4	-0.05728878
7	0xbd3ae3c6	-0.045627378
8	0xbd368651	-0.044561688
9	0x3defcef3	0.11709394
10	0xbd308d50	-0.043103516
11	0x3c27bda0	0.010238081
12	0x3da982c8	0.08276898
13	0xbdcc3950	-0.09971869
14	0x3dd6a7c6	0.10481219
15	0xbc03fab0	-0.008055374
16	0xbd2a8b70	-0.041636884
17	0x3d42bf99	0.047546003
18	0xbc7fd9cb	-0.015615891
19	0xbcafd45f	-0.021463571
20	0xbd8b9e29	-0.06817276
21	0x3cd05322	0.025430266
22	0x3bbe5774	0.005808765
23	0xbd681be5	-0.056667227
24	0xbd931cf7	-0.07183259
25	0xbc89664c	-0.016772412
26	0x3cf7d50f	0.030252961
27	0x3ce0b5fc	0.027430527
28	0x3d978b38	0.07399601
29	0xbcfe8bef	-0.031072585
30	0x3d122ed4	0.03568919
31	0xbdcfcab1	-0.10146082

encoder.1.weight f4 [32]
0	0x3f7cf9ac	0.9881847
1	0x3ec4876c	0.3838457
2	0x3f13170c	0.5745704
3	0x3f061002	0.52368176
4	0x3e7bbecb	0.245845
5	0x3f01af02	0.50657666
6	0x3eb804d0	0.35941172
7	0x3f20a768	0.6275544
8	0x3f291ed4	0.66062665
9	0x3eca5a18	0.3952186
10	0x3f07d8b4	0.5306504
11	0x3f2b51b5	0.6692155
12	0x3eef39f1	0.46723893
13	0x3f175652	0.5911609
14	0x3f2ab8c9	0.6668821
15	0x3f48b58a	0.78402007
16	0x3ef814bb	0.48453316
17	0x3f0dc0a8	0.55372095
18	0x3f04075f	0.5157375
19	0x3f021417	0.50811905
20	0x3f0dd115	0.5539716
21	0x3f1fb63d	0.6238745
22	0x3ee5f755	0.44915262
23	0x3eea8135	0.45801702
24	0x3ee2171d	0.4415826
25	0x3edef070	0.43542814
26	0x3ed27579	0.4110525
27	0x3e923040	0.28552437
28	0x3f33481a	0.70031893
29	0x3f08b81f	0.53405946
30	0x3ed5b5a3	0.4174014
31	0x3ee16418	0.44021678

encoder.1.bias f4 [32]
0	0x3ea4e00e	0.3220219
1	0xbe265765	-0.16244276
2	0xbe68d8a8	-0.22738898
3	0x3c46313b	0.012096698
4	0x3e1f203f	0.15539645
5	0x3deebdb2	0.11657275
6	0xbdde5cd1	-0.10857547
7	0x3e342522	0.1759229
8	0x3e0b72c2	0.13617995
9	0x3e0e9ab9	0.1392621
10	0xbd3b0383	-0.045657646
11	0x3df94a37	0.121723585
12	0xbf30b027	-0.6901879
13	0xbd0259e5	-0.03182401
14	0x3d81db72	0.06340684
15	0x3ed8f698	0.42375636
16	0xbde09aad	-0.10967002
17	0xbf704c29	-0.9386621
18	0xbe23eabd	-0.16007514
19	0xbe070d24	-0.13188607
20	0xbeca72ac	-0.39540613
21	0xbead0a8b	-0.33797106
22	0xbdedeba1	-0.11617208
23	0xbdb46d87	-0.08809953
24	0xbee084a7	-0.43851206
25	0xbd465854	-0.04842408
26	0x3ecca10f	0.39966628
27	0x3d0cb6b9	0.034353945
28	0xbd9e193e	-0.07719658
29	0xbdd5f31a	-0.104467586
30	0x3cd5408f	0.02603176
31	0x3d8c8051	0.06860412

encoder.1.running_mean f4 [32]
0	0x3dd19cdd	0.102349974
1	0xbd943747	-0.07237106
2	0xbe844c62	-0.25839525
3	0x3d352a3a	0.044229724
4	0x3c66cefc	0.014087435
5	0x3c777e60	0.015105814
6	0xbce7fa9c	-0.028317742
7	0xbd3af79d	-0.0456463
8	0xbd4c32c0	-0.049853086
9	0x3d9bce16	0.07607667
10	0xbd404aec	-0.04694645
11	0x3de08c43	0.10964253
12	0x3d17cd22	0.037060864
13	0xbdafd562	-0.085856214
14	0xbd851c16	-0.064994976
15	0x3e82ff26	0.25585288
16	0xbdf398ac	-0.11894354
17	0xbe6028c7	-0.21890555
18	0x3c81b9f1	0.015835734
19	0xbc91a55e	-0.017779049
20	0xbe9ad49b	-0.3024033
21	0xbe038bca	-0.12846294
22	0xbccb1ae6	-0.0247931
23	0xbd7af7a5	-0.06127133
24	0xbded6e42	-0.11593296
25	0xbd21b0b5	-0.03947516
26	0x3d9cbcc4	0.07653192
27	0x3d218086	0.03942921
28	0x3d848c7b	0.06472107
29	0xbce1fdf4	-0.027586915
30	0x3ce5ca0c	0.028050445
31	0xbdc52cf9	-0.096277185

encoder.1.running_var f4 [32]
0	0x405baf67	3.4325807
1	0x3d47f388	0.048816234
2	0x3fa5002a	1.2890675
3	0x3e1001fc	0.14063257
4	0x3e1f6b3d	0.15568252
5	0x3df08c82	0.1174555
6	0x3e7242ea	0.23658338
7	0x3e9b306f	0.3031039
8	0x3f114527	0.56746143
9	0x3e71bac5	0.23606403
10	0x3e2cf640	0.16890812
11	0x3ec58428	0.3857739
12	0x3f64ffa1	0.8945256
13	0x3eb6536e	0.35610527
14	0x3ff597aa	1.9186909
15	0x3fd5e945	1.6711813
16	0x3e4fa3f6	0.2027739
17	0x3fdcb232	1.7241881
18	0x3e4b01d6	0.19824919
19	0x3e9c09fe	0.30476373
20	0x3fa1e2f6	1.2647388
21	0x3fc63592	1.5485098
22	0x3e302a46	0.17203626
23	0x3d8eaf8c	0.06967077
24	0x3e7d0443	0.24708657
25	0x3e01df78	0.12682903
26	0x3e40a854	0.18814212
27	0x3da72c9f	0.08162808
28	0x3e0ca337	0.13734137
29	0x3f0524ad	0.5200909
30	0x3e93884a	0.28814918
31	0x3e2266c1	0.1585951

encoder.3.weight f4 [64, 32, 3, 3]
0	0x3dfbb002	0.1228943
1	0x3d6b2292	0.057406016
2	0xbd395bea	-0.04525367
3	0xbe37a8d9	-0.17935504
4	0xbe8a37d3	-0.26995715
5	0x3b967bcc	0.0045923945
6	0xbdeb18e7	-0.11479359
7	0xbd589710	-0.05287844
8	0x3df86bd7	0.12129944
9	0x3e22c772	0.15896395
10	0xbd0aacef	-0.03385633
11	0xbd1e9d6b	-0.038724344
12	0x3d53e5e6	0.05173292
13	0xbe252891	-0.16128756
14	0xbe2d11af	-0.16901277
15	0x3d5fdfbf	0.05465674
16	0xbd08bd5c	-0.033383712
17	0xbde2a1c2	-0.11066009
18	0x3d69709c	0.05699216
19	0x3d1434ba	0.036183096
20	0xbc7be22f	-0.015373751
21	0x3ddcd6c8	0.10783154
22	0x3cd7ba67	0.026334
23	0xbf2a3282	-0.6648332
24	0x3d5787be	0.05261969
25	0x3da15117	0.07876795
26	0xbc9dce14	-0.019263305
27	0xbd9b1bec	-0.07573685
28	0xbd7b8059	-0.0614017
29	0x3e896075	0.26831403
30	0xbda39888	-0.079880774
31	0xbdc3016b	-0.09521755
32	0xbe0b3b66	-0.13596877
33	0xbd9faf5c	-0.07797119
34	0x3cc6c743	0.024264937
35	0x3da29e1a	0.07940312
36	0xbe35df14	-0.17760879
37	0xbeaba45e	-0.3352384
38	0xbe42d5a0	-0.19026804
39	0x3de2b298	0.1106922
40	0x3d876610	0.06611264
41	0xbe0085a8	-0.12550986
42	0x3d0ee8be	0.03488993
43	0xbd9fa522	-0.077951685
44	0xbde42a60	-0.11140895
45	0xbe2d4ca9	-0.16923775
46	0x3c8ed550	0.0174357
47	0xbd94c836	-0.0726475
48	0xbd1f9a33	-0.038965415
49	0xbde9fdb1	-0.11425341
50	0xbf18ac96	-0.59638345
51	0xbd25aad6	-0.040446125
52	0xbe81864e	-0.2529778
53	0xbe25595d	-0.1614737
54	0x3da023cf	0.0781933
55	0xbd9b30e1	-0.07577682
56	0x3e3221d1	0.17395712
57	0x3e084575	0.13307746
58	0x3d0edd41	0.034878973
59	0x3def3eb5	0.11681882
60	0x3db6e355	0.08930079
61	0x3e0fa374	0.14027196
62	0x3e5d56b6	0.21615109
63	0x3d809453	0.062782906
64	0xbd414e25	-0.047193665
65	0x3cff77b9	0.031185018
66	0x3e5a97c1	0.21346952
67	0x3d9dc39c	0.07703325
68	0x3c38096f	0.011232718
69	0xbc8bcd5a	-0.017065693
70	0xbd888fe8	-0.06668073
71	0xbd8e3163	-0.069430135
72	0x3dfd28e6	0.123613164
73	0xbc4c6e7d	-0.012477514
74	0xbd387881	-0.045036796
75	0x3dcda33f	0.10040902
76	0x3dcfabc5	0.10140184
77	0xbc2e6db3	-0.0106462715
78	0x3e17a718	0.14809835
79	0x3bc348f6	0.0059596254
80	0x3dd6cf98	0.10488814
81	0xbe4e45d1	-0.2014382
82	0xbe9ea2c5	-0.30983558
83	0xbe24973d	-0.16073318
84	0xbdab6c36	-0.08370249
85	0x3d8812c3	0.066442035
86	0xbb970faf	-0.004610024
87	0x3dc9949c	0.09842798
88	0x3db314f9	0.087442346
89	0x3d09e7e4	0.033668414
90	0x3dc35b87	0.09538942
91	0xbc7978df	-0.015226572
92	0xbe6b2237	-0.2296227
93	0xbcf77e26	-0.03021152
94	0xbe1c02e0	-0.15235472
95	0x3d8508f8	0.06495851
96	0x3d1eace6	0.038739108
97	0xbcc6c1cb	-0.02426233
98	0xbdc08f48	-0.09402329
99	0xbddb71cd	-0.10715065
100	0xbd6c1b0d	-0.057642985
101	0x3e8be214	0.2732092
102	0xbd6b50d0	-0.057450116
103	0xbd5e502a	-0.05427567
104	0x3e630541	0.22169973
105	0xbe576463	-0.21034388
106	0xbe5338f7	-0.20627199
107	0x3dec89f1	0.11549748
108	0xbe20fb13	-0.15720777
109	0xbe0b7675	-0.13619407
110	0x3d3cf958	0.04613623
111	0xbded65e4	-0.115917
112	0x3e895627	0.26823542
113	0xbd984d24	-0.074365884
114	0xbe0df77a	-0.13863936
115	0x3e0c87d4	0.1372369
116	0xbdedf12e	-0.11618267
117	0x3da2b359	0.07944364
118	0xbe4a1c7f	-0.19737433
119	0xbd94cdcd	-0.07265816
120	0xbe4cf18d	-0.2001402
121	0x3d7bed0d	0.061505366
122	0x3c1118d8	0.008856021
123	0xbd069d6a	-0.032864965
124	0xbc0ba2fc	-0.008522745
125	0xbd53688c	-0.051613376
126	0xbc4d605e	-0.012535183
127	0xbb52a0ae	-0.003213923
128	0x3c9cbc89	0.01913287
129	0x3dea318e	0.11435233
130	0x3e05b6cd	0.13058014
131	0x3c2fca76	0.010729423
132	0x3d8df901	0.06932259
133	0x3db71f63	0.089415334
134	0xbe2e3790	-0.17013383
135	0xbdbf963e	-0.09354828
136	0xbdfb0094	-0.1225597
137	0x3d4cd7fc	0.050010666
138	0xbe4e38a1	-0.2013879
139	0x3d8a5b6f	0.06755721
140	0x3eee4f5a	0.46544915
141	0xbd9574c9	-0.072976656
142	0xbd87d209	-0.06631858
143	0x3e4d7180	0.20062828
144	0xbc4ec2eb	-0.012619714
145	0xbc19292f	-0.009348198
146	0xbc81620c	-0.015793823
147	0x3dc187cf	0.094497316
148	0x3dd158d0	0.10222018
149	0xbcd5ff72	-0.026122782
150	0x3de41a48	0.11137825
151	0x3e1d91af	0.15387605
152	0x3cb698c5	0.022289643
153	0xbd927192	-0.07150568
154	0x3d0bc053	0.03411896
155	0x3e8acb66	0.27108306
156	0x3e231a69	0.15928043
157	0x3f07a5f7	0.5298762
158	0x3e1164d8	0.14198625
159	0x3dfd4cc3	0.12368157
160	0x3e6e29cb	0.2325813
161	0x3b528dc1	0.003212795
162	0x3dd58b52	0.10426964
163	0xbe3290b5	-0.17438014
164	0x3d8fa387	0.07013612
165	0x3cb8c747	0.02255596
166	0x3e904411	0.2817693
167	0x3ebcda24	0.36885178
168	0x3d81c0e7	0.06335621
169	0xbd62c3a6	-0.055362366
170	0xbe45b7a8	-0.1930834
171	0xbe01a763	-0.12661509
172	0x3daeacc8	0.08529049
173	0x3dbc6823	0.0919955
174	0xbe0b7e14	-0.13622314
175	0xbcf950dc	-0.030434065
176	0xbe355509	-0.1770822
177	0xbd1fc175	-0.039002854
178	0x3d121aeb	0.035670202
179	0x3e4a081d	0.19729657
180	0x3dfc9755	0.12333552
181	0xbca47b50	-0.020078331
182	0xbde4ddc8	-0.11175114
183	0x3e1ad5e2	0.15120652
184	0x3e0c6752	0.13711289
185	0xbee04670	-0.4380374
186	0x3da1ad3c	0.0789437
187	0x3c358885	0.011079912
188	0x3d7da1d5	0.061921913
189	0x3dcb65fb	0.099315606
190	0x3cac2027	0.021011425
191	0xbd0c3d0a	-0.0342379
192	0xbc8bbed0	-0.01705876
193	0x3e2b7e1a	0.16747323
194	0xbce708ef	-0.028202502
195	0x3d7dab5d	0.061931003
196	0x3e33c03c	0.175538
197	0xbe4b0655	-0.19826634
198	0x3cb31853	0.021862185
199	0xbdb07cb1	-0.08617533
200	0xbc46b85e	-0.0121289175
201	0xbc319bc6	-0.010840362
202	0x3e09e1a8	0.13464987
203	0x3dd530d5	0.104097046
204	0xbc960741	-0.018314006
205	0x3cfe5202	0.031044964
206	0xbe8b8f18	-0.2725761
207	0x3b8e3e32	0.0043409104
208	0xbd87ce21	-0.06631113
209	0x3d9f1a88	0.07768732
210	0x3dad257c	0.08454415
211	0x3e8b6c7d	0.27231207
212	0xbca6887a	-0.020328749
213	0xbe00ec9b	-0.12590258
214	0xbe12b1d7	-0.14325653
215	0xbc0f52e1	-0.008747787
216	0xbe34c549	-0.17653383
217	0xbe88a514	-0.26688445
218	0xbd3486fd	-0.044074047
219	0xbec69910	-0.38788652
220	0x3d4bc8d4	0.04975207
221	0x3e47f0bc	0.19525427
222	0xbe7432a8	-0.23847449
223	0xbe2e7620	-0.17037249
224	0xbea97a07	-0.33100912
225	0x3d8d3682	0.06895162
226	0x3ddeacb2	0.10872783
227	0x3d6ae915	0.05735119
228	0xbd4fd9ff	-0.050745007
229	0xbe69c30f	-0.22828315
230	0xbe84618b	-0.2585567
231	0xbd80ce6e	-0.06289373
232	0xbdd545b2	-0.10413684
233	0x3c9266c2	0.017871264
234	0x3de86090	0.11346543
235	0xbe0add5e	-0.13561007
236	0xbe00732b	-0.12543933
237	0xbe1d3ab6	-0.15354428
238	0x3dff3654	0.12461534
239	0x3ed8777f	0.42278668
240	0xbcedbf7b	-0.029021969
241	0x3e445478	0.19172847
242	0x3e934bd3	0.28768787
243	0x3d07730f	0.033068713
244	0x3e08170c	0.13290042
245	0x3e08f7d1	0.13375784
246	0x3e6f4d63	0.23369364
247	0x3e8cd5c7	0.2750685
248	0xbc2df09a	-0.010616446
249	0x3db9ce9d	0.090726115
250	0x3e6143a7	0.21998464
251	0x3e11e9d1	0.1424935
252	0x3de6aa73	0.11262979
253	0x3cae1b1c	0.021253161
254	0xbe24f70c	-0.16109866
255	0xbd917f33	-0.071043395

encoder.3.bias f4 [64]
0	0x3cdfc5da	0.027316023
1	0x3cd15cb9	0.025556909
2	0xbcdd9170	-0.027046889
3	0xbca0551c	-0.019571833
4	0xbc23eace	-0.010004712
5	0x3a37d797	0.00070130214
6	0xbc9431bc	-0.018090121
7	0x3b14e021	0.00227166
8	0xbcb17e2e	-0.021666612
9	0xbc670963	-0.014101359
10	0x3d0125de	0.031530254
11	0xbb824e10	-0.003976591
12	0x3d061d90	0.032743037
13	0x3a5a52b5	0.00083283643
14	0x37c66268	2.3649263e-05
15	0x3c198c6b	0.009371857
16	0x3c379ef4	0.011207331
17	0xbd1822da	-0.037142612
18	0xba8deb8d	-0.0010827646
19	0x3bfde779	0.007748541
20	0xbb915367	-0.004434991
21	0xbd03e18f	-0.03219753
22	0xbcef08a0	-0.029178917
23	0x3c071b64	0.0082462765
24	0xbaf07c31	-0.0018347559
25	0xbc8007d0	-0.015628725
26	0xbcf93014	-0.030418433
27	0xbb48ea0e	-0.0030657086
28	0x3cb87985	0.022518883
29	0xbca2a13e	-0.019852277
30	0xbc7f755a	-0.015591944
31	0x3c3847ae	0.0112475585
32	0xbca82892	-0.020527158
33	0x3c0735ee	0.008252604
34	0x3cf17022	0.029472414
35	0xbc950685	-0.018191585
36	0xbb973815	-0.00461484
37	0xbc1a9bcb	-0.009436558
38	0xbb806a93	-0.0039189546
39	0xbc14063f	-0.009034692
40	0x3c379c02	0.011206629
41	0xbd14782a	-0.03624741
42	0x3cc0376c	0.023463927
43	0xbcba2ba9	-0.022725897
44	0x3c909966	0.017651271
45	0x3c29273d	0.010324297
46	0xbccfb963	-0.025356954
47	0xbc2ea3d0	-0.010659173
48	0xbd1659d9	-0.03670678
49	0x3c2b2990	0.010446921
50	0xbc9928c3	-0.018696195
51	0xbc588150	-0.013214424
52	0xbc569a3a	-0.013098294
53	0xbc8beb94	-0.017080106
54	0xbc324a0f	-0.010881915
55	0xbc08bc79	-0.008345717
56	0xbcaeacea	-0.021322686
57	0x3ac41bad	0.0014961861
58	0xbaa756dc	-0.0012766975
59	0x3b81eac8	0.0039647557
60	0xbb75067c	-0.0037387898
61	0xbce83612	-0.028346095
62	0xbc7a8966	-0.015291547
63	0xbcda827d	-0.02667355

encoder.4.weight f4 [64]
0	0x3e94bccd	0.29050294
1	0x3ef2c510	0.47415972
2	0x3e63237c	0.22181505
3	0x3ed4f497	0.41592857
4	0x3ee2896a	0.44245464
5	0x3efd0cd6	0.49423856
6	0x3f116cdd	0.5680674
7	0x3ed08679	0.40727594
8	0x3e76de69	0.2410828
9	0x3ebab6f7	0.36467716
10	0x3eebb089	0.46033123
11	0x3eb167df	0.3464956
12	0x3ed7fd20	0.42185307
13	0x3eed79de	0.4638204
14	0x3f10064e	0.5625962
15	0x3ed52994	0.41633284
16	0x3eedbe7b	0.46434388
17	0x3f15db89	0.5853811
18	0x3ef9cd26	0.48789328
19	0x3f049516	0.5178999
20	0x3edeed5b	0.43540463
21	0x3ecd67f3	0.4011837
22	0x3e901e4d	0.28148118
23	0x3f2d98d1	0.67811304
24	0x3eccaf01	0.39977267
25	0x3f0258fc	0.5091703
26	0x3efd437e	0.49465555
27	0x3edaeb86	0.42757815
28	0x3f2707c9	0.65246254
29	0x3eabef28	0.335809
30	0x3ec819eb	0.39082274
31	0x3e908e79	0.28233698
32	0x3f1d8fc5	0.615475
33	0x3e867e8c	0.26268423
34	0x3e786a6a	0.24259344
35	0x3f0c67df	0.54845995
36	0x3ea8292f	0.3284392
37	0x3eaa81e0	0.33302212
38	0x3ee4d6bb	0.44695076
39	0x3f200575	0.62508327
40	0x3ea7bbe4	0.32760537
41	0x3e945cba	0.28976995
42	0x3e9c88b1	0.30573037
43	0x3eba28f1	0.3635936
44	0x3eba4ee0	0.36388302
45	0x3e820f76	0.2540242
46	0x3e83f16f	0.25770137
47	0x3f07b008	0.5300298
48	0x3f05db9f	0.5228824
49	0x3eacc3b3	0.33743057
50	0x3ee3f5bb	0.44523415
51	0x3e8071fa	0.25086957
52	0x3eaed058	0.3414333
53	0x3ebdc783	0.37066278
54	0x3f16b0ef	0.5886373
55	0x3eae8453	0.3408533
56	0x3f0c0c7a	0.5470654
57	0x3edf7a13	0.43647823
58	0x3ed27686	0.4110605
59	0x3e711f28	0.23547041
60	0x3e9ceb85	0.30648437
61	0x3e5b155b	0.21394865
62	0x3eb35fc4	0.35034
63	0x3f091829	0.5355249

encoder.4.bias f4 [64]
0	0x3da65296	0.08121221
1	0xbfa674ed	-1.3004433
2	0x3db7133f	0.08939218
3	0xbc9b81da	-0.018982816
4	0xbef8a086	-0.4855997
5	0xbf3c4401	-0.73541266
6	0xbf8e3c8c	-1.1112227
7	0xbeaebaf6	-0.34127015
8	0x3c64f685	0.01397479
9	0xbd8944f4	-0.06702605
10	0x3de8d5e1	0.11368919
11	0x3d57f8b6	0.052727424
12	0xbf270d1d	-0.65254384
13	0x3ed07974	0.4071766
14	0xbf6bb2c5	-0.92069656
15	0xbc8a7006	-0.01689912
16	0xbe63664d	-0.22206993
17	0xbf819ea4	-1.0126538
18	0xbe0351ac	-0.12824124
19	0xbdfa7bb2	-0.12230624
20	0x3c7301ec	0.014832001
21	0x3e004419	0.12525977
22	0x3d3f3496	0.04668101
23	0x3db75757	0.08952206
24	0xbe124882	-0.14285472
25	0xbf85b72c	-1.0446525
26	0xbe1c39fb	-0.15256493
27	0xbea333b3	-0.3187538
28	0xbf1055bd	-0.56380826
29	0x3dad947e	0.08475588
30	0x3d9116e0	0.07084441
31	0xbe1259fd	-0.1429214
32	0xbfd819c3	-1.6882862
33	0x3c2ba7fb	0.010477061
34	0x3debafa8	0.11508113
35	0xbf94ea42	-1.163399
36	0xbda68442	-0.08130695
37	0xbe37a813	-0.17935209
38	0x3c8b5c6b	0.017011842
39	0x3e0eb7f0	0.13937354
40	0xbe4d0f69	-0.2002541
41	0x3dc6e1e9	0.09711058
42	0xbdaf08ad	-0.08546577
43	0xbe6ce4f7	-0.23134218
44	0xbe74dbfb	-0.23912041
45	0xbd055786	-0.032554172
46	0x3d8ca8e1	0.068681486
47	0x3d322de2	0.04350079
48	0xbef85ff4	-0.48510706
49	0xbe6b1d53	-0.22960405
50	0x3d25883a	0.04041312
51	0xbd4c345c	-0.04985462
52	0x3e27f4bb	0.16401951
53	0xbd2938de	-0.041314
54	0xbf83f500	-1.0309143
55	0x3e03d9e3	0.12876086
56	0xbd76df45	-0.06027152
57	0xbef40c6f	-0.47665736
58	0xbeb92dda	-0.36167794
59	0x3f01563d	0.50522214
60	0xbdbceee4	-0.09225252
61	0x3d886fed	0.06661973
62	0xbe224ae1	-0.15848877
63	0xbdc117a7	-0.094283395

encoder.4.running_mean f4 [64]
0	0xbd71acb2	-0.059002586
1	0xbda36d1d	-0.07979796
2	0x3ed8ce3e	0.4234485
3	0x3f9873f5	1.1910387
4	0x3fd5d298	1.6704893
5	0x3f431bb2	0.76214135
6	0x404453d8	3.0676174
7	0xbfd64894	-1.6740899
8	0xbe8dadc8	-0.27671647
9	0x3da6b52c	0.081400245
10	0x3f2530aa	0.6452738
11	0xbe15d955	-0.14633687
12	0x3fcf476b	1.619367
13	0xbfafe697	-1.3742245
14	0x3fc2133d	1.5162121
15	0xbf93eab9	-1.1556007
16	0xbfd4cc60	-1.662487
17	0x3fd1b71c	1.6384006
18	0xbfb3c8bf	-1.4045638
19	0xbe27a8ab	-0.16372935
20	0x3da48015	0.08032242
21	0xbf11f0ec	-0.5700824
22	0x3f5f0e2b	0.87130994
23	0xbe0115d6	-0.12605986
24	0x3edd9a0d	0.43281594
25	0x3d8930cd	0.06698761
26	0xbf80f916	-1.0076015
27	0xc04cd963	-3.2007682
28	0x3ffce51e	1.9757421
29	0x3ea30095	0.31836382
30	0xbf0b1e14	-0.5434277
31	0xbeeef79c	-0.46673286
32	0xbf1e3200	-0.61795044
33	0xbf37f6af	-0.71860784
34	0x3e79bc90	0.24388337
35	0x3fc9a084	1.575211
36	0xbea96710	-0.33086443
37	0xbd86b036	-0.06576578
38	0xbea0cb6a	-0.31405193
39	0x3fd20156	1.6406658
40	0xbf182802	-0.5943605
41	0xbe81c388	-0.2534449
42	0xbe51d1e5	-0.20490225
43	0xbf148543	-0.5801584
44	0xbf422716	-0.7584089
45	0xbef776d0	-0.48332834
46	0xbf200d8a	-0.6252066
47	0x3f8e6a9f	1.1126288
48	0x3fb0acb1	1.3802701
49	0xbf9130ae	-1.1342981
50	0xbe8a987a	-0.27069455
51	0xbf9d527a	-1.2290795
52	0xbed89597	-0.42301628
53	0x3f42ff6d	0.76171
54	0x3ebf6f32	0.37389523
55	0xbcc899a2	-0.02448732
56	0x3e6bddd6	0.23033842
57	0xbfcc49ae	-1.5959985
58	0xbfd6ef45	-1.6791769
59	0xbecdcd2b	-0.40195593
60	0x3e99624b	0.29957804
61	0x3dede16f	0.11615264
62	0x3ec85881	0.39130023
63	0xbeab39bf	-0.33442494

encoder.4.running_var f4 [64]
0	0x3fd4a1de	1.6611898
1	0x3fb22efe	1.3920591
2	0x3f86a109	1.0517894
3	0x408014aa	4.0025225
4	0x3f6d7185	0.9275134
5	0x3fade16c	1.3584418
6	0x4008a454	2.1350298
7	0x407a15f8	3.9075909
8	0x3ec43fdc	0.3832997
9	0x3f9ed420	1.2408485
10	0x4027b444	2.6203775
11	0x40608df4	3.5086641
12	0x3f90248b	1.1261152
13	0x41267190	10.402725
14	0x3fdac989	1.7092754
15	0x4016de0c	2.3573027
16	0x41067682	8.403933
17	0x3f993e1a	1.1972077
18	0x4110f5c7	9.060004
19	0x4104168c	8.255505
20	0x4002bb0d	2.0426667
21	0x3f23b0bf	0.6394157
22	0x3f14634a	0.57964003
23	0x41175711	9.458756
24	0x401bbb31	2.4333003
25	0x3ef97f16	0.4872977
26	0x3ec4a138	0.3840425
27	0x413a4b36	11.643362
28	0x4106da0d	8.428235
29	0x3f92cd0a	1.1468823
30	0x3f9fa1c1	1.2471238
31	0x3f9f3d76	1.2440631
32	0x3ed8c48e	0.4233746
33	0x3eb10f67	0.34582064
34	0x3f8ba89b	1.0910829
35	0x3fe04378	1.752059
36	0x3f026e47	0.5094952
37	0x3fc1b4ff	1.5133361
38	0x40931065	4.5957513
39	0x414889d4	12.533649
40	0x3f830676	1.0236347
41	0x3e8d0b90	0.27547884
42	0x40b672c5	5.70151
43	0x3f0b6592	0.5445186
44	0x3fa9f3b8	1.3277502
45	0x3f5cb436	0.8621248
46	0x3f5e038f	0.8672418
47	0x4121cb33	10.112109
48	0x403e4dce	2.9734988
49	0x4028d97e	2.6382747
50	0x3faed2e9	1.3658115
51	0x3f5584bf	0.8340568
52	0x3fc24f7e	1.5180509
53	0x3faf85ce	1.3712709
54	0x3fb64d86	1.4242408
55	0x3fc9bc04	1.5760503
56	0x4091acf0	4.5523605
57	0x3ffbfbb2	1.9686186
58	0x3fc1ee7b	1.5150903
59	0x3fb45738	1.4089117
60	0x3febd5a4	1.8424573
61	0x3f9e90cf	1.2387942
62	0x3fd7b7c7	1.6852959
63	0x40236cb4	2.5535097

encoder.6.weight f4 [128, 64, 3, 3]
0	0x3d7fbe72	0.062437482
1	0xbd0d9c7b	-0.03457306
2	0x3b32af9b	0.0027265314
3	0xbd45a520	-0.04825318
4	0xbe3a0062	-0.18164209
5	0xbdc08dfa	-0.0940208
6	0x3d1806b4	0.037115768
7	0x3d2e1545	0.042500753
8	0xbe1eef61	-0.15521003
9	0xbb6585db	-0.003502241
10	0xbd058287	-0.032595184
11	0xbd09307f	-0.033493515
12	0x3d4f12fa	0.050555207
13	0xbed263b8	-0.41091704
14	0xbdcc3068	-0.0997017
15	0xbdd1f8b7	-0.10252517
16	0xbe0aae43	-0.13543038
17	0x3c9056e6	0.017619561
18	0x3b1bd6d2	0.0023779166
19	0x3e0dea3d	0.13858886
20	0xbc823b5e	-0.01589745
21	0x3da69bd0	0.081351876
22	0xbe3d8cfc	-0.18510813
23	0x3aac203a	0.0013132163
24	0xbcadbe74	-0.02120898
25	0x3e1f1161	0.15533973
26	0xbe77dc77	-0.24205194
27	0x3d587b84	0.05285217
28	0xbd9ca184	-0.07647994
29	0xbd0bf2a6	-0.034166954
30	0xbe223a7d	-0.15842624
31	0x3e10cb56	0.14140067
32	0x3cc1be6d	0.023650372
33	0x3de094d6	0.10965888
34	0xbbc73ec1	-0.006080479
35	0x3d0e087a	0.034676053
36	0x3c9b6987	0.018971218
37	0xbcf4a4af	-0.029863684
38	0x3d08b7b9	0.033378337
39	0xbd6b2512	-0.0574084
40	0x3dab4131	0.08362044
41	0xbb513580	-0.0031922758
42	0x3da90b93	0.08254161
43	0xbdee4a10	-0.1163522
44	0xbe5b37b3	-0.21407966
45	0xbcfa90f3	-0.030586695
46	0xbdcf63d2	-0.10126461
47	0xbe431b97	-0.19053493
48	0x3dfecf76	0.12441914
49	0xbeccf6b3	-0.40031967
50	0x3e913964	0.28364098
51	0x3d60098b	0.0546966
52	0x3db2f973	0.08738985
53	0x3e73e2f5	0.23817046
54	0x3db8751e	0.09006713
55	0xbcb0abdb	-0.021566322
56	0xbd6df446	-0.058094285
57	0x3dec74a6	0.115456864
58	0x3cc338b2	0.023830745
59	0x3e365c26	0.1780859
60	0x3ca5c323	0.02023465
61	0x3d0adff8	0.033905
62	0x3ecf882b	0.40533575
63	0x3b94b7ab	0.0045384965
64	0x3e0e3631	0.1388786
65	0xbe914b47	-0.28377745
66	0x3ce31ab5	0.027722696
67	0x3c6952b4	0.014240909
68	0xbdd90317	-0.105962925
69	0x3d42c326	0.04754939
70	0xbe31049e	-0.17286918
71	0xbe2e6158	-0.17029321
72	0xbc56ee7f	-0.013118385
73	0x3d93c7a8	0.07215816
74	0x3df893d0	0.12137568
75	0x3e251041	0.16119482
76	0x3b566fe6	0.0032720505
77	0xbe293b22	-0.16526464
78	0xbd8605f8	-0.06544107
79	0x3c85ea04	0.016346939
80	0x3e2a77c5	0.16647251
81	0x3dacf3c2	0.084449306
82	0x3c296d59	0.010341012
83	0x3da0e2f7	0.0785579
84	0xbc3b5c02	-0.011435511
85	0x3e313eb2	0.17309073
86	0xbe078288	-0.13233387
87	0xbc7f0082	-0.015564086
88	0xbd37d346	-0.04487922
89	0x3c9c01ee	0.019043889
90	0xbbcb8f5a	-0.006212157
91	0xbdb1bb9e	-0.08678363
92	0xbc56b347	-0.0131042665
93	0x3c8da5b5	0.01729093
94	0xbeec4e2c	-0.4615339
95	0xbe64470e	-0.2229273
96	0xbd0e89a8	-0.034799248
97	0xbf0393ba	-0.5139729
98	0xbe0147f0	-0.12625098
99	0xb857267a	-5.129583e-05
100	0xbc1664e3	-0.009179327
101	0xbcac7dba	-0.021056045
102	0x3dc99026	0.09841947
103	0x3d5fd2e7	0.05464449
104	0x3e02d29a	0.1277565
105	0x3ddb0cf0	0.10695827
106	0xbba76de0	-0.0051095337
107	0x3e29f920	0.1659894
108	0xbd8f3ebb	-0.06994387
109	0x3d0db647	0.03459766
110	0xbc717023	-0.014736208
111	0x3d2e6648	0.04257801
112	0x3e43ddcb	0.19127576
113	0x3e80bd44	0.25144398
114	0x3d0aa72f	0.033850845
115	0x3d9cd4d8	0.07657784
116	0xbe338e8c	-0.17534846
117	0xbe3978f3	-0.18112545
118	0xbcd55726	-0.026042532
119	0x3c53295f	0.012888282
120	0xbdd073c9	-0.10178334
121	0x3d0c9171	0.03431839
122	0x3d36df77	0.044646706
123	0xbc4bf7c6	-0.0124492105
124	0xbd4aa18a	-0.049470462
125	0x3dcb9e46	0.09942298
126	0x3bae7f4e	0.0053252345
127	0xbc1d185a	-0.009588325
128	0x3d2f97be	0.042869322
129	0xbc9804ee	-0.018557038
130	0xbc843c82	-0.016142134
131	0xbda1e82f	-0.07905614
132	0xbc034ab2	-0.008013414
133	0x3e5530f7	0.2081946
134	0x3e08d185	0.13361175
135	0xbda74188	-0.08166796
136	0x3d0fa9ce	0.035074048
137	0x3dbece5f	0.09316706
138	0x3ddf26d8	0.10896081
139	0xbdd73c55	-0.10509554
140	0xbd8fc8dd	-0.070207335
141	0xbd72d2f4	-0.05928321
142	0x3d1e1227	0.03859153
143	0xbe2ab8e3	-0.16672091
144	0xbcd1956c	-0.025583945
145	0x3c31ca67	0.010851479
146	0x3da823e9	0.08209974
147	0x3d65ab15	0.05607136
148	0x3db7235a	0.0894229
149	0x3e03a6a4	0.12856537
150	0x3dff0784	0.12452605
151	0x3e81d797	0.25359794
152	0xbdb09eb9	-0.08624024
153	0xbd059725	-0.032614846
154	0xbdf3e6c1	-0.11909247
155	0xbd6e8184	-0.058228984
156	0xbd4ab737	-0.049491134
157	0xbdf75800	-0.120773315
158	0xbdeb5b3e	-0.114920124
159	0xbded6c6e	-0.11592947
160	0xbed259c4	-0.4108411
161	0x3edfdb29	0.43721893
162	0x3d88735d	0.06662629
163	0x3b864a4a	0.0040982114
164	0xbd7f23fc	-0.062290177
165	0xbc86a0ff	-0.01643419
166	0xbdc21f63	-0.09478643
167	0x3d0a9e30	0.033842266
168	0x3d8bc482	0.0682459
169	0x3e08af6d	0.1334817
170	0xbd895a48	-0.06706673
171	0x3d4be68b	0.04978041
172	0x3d38b1d4	0.045091465
173	0x3d3fa3ba	0.046787
174	0xbc944303	-0.01809836
175	0x3d870f9a	0.06594773
176	0xbde45399	-0.111487575
177	0xbdbf15a7	-0.09330302
178	0xbe87c5bf	-0.26518056
179	0xbdf80664	-0.12110594
180	0xbb021972	-0.0019851592
181	0x3b66091b	0.0035100642
182	0x3d902837	0.070389204
183	0xbe12b59a	-0.14327088
184	0xbd8ab944	-0.06773618
185	0xbe89e58c	-0.26932943
186	0xbdba8d28	-0.09108955
187	0xbe59ca0a	-0.21268478
188	0x3f1dbbfd	0.6161497
189	0x3ce45343	0.027871734
190	0x3ddb72d0	0.10715258
191	0xbd165d04	-0.0367098
192	0x3c8987df	0.016788421
193	0x3e9e9e55	0.30980173
194	0xbdcbe7ab	-0.099562965
195	0xbd9e8fe4	-0.07742289
196	0xbe86f69e	-0.2636003
197	0x3e053bdc	0.13011116
198	0xbc58759a	-0.013211632
199	0x3da2c523	0.07947757
200	0x3d07f596	0.033193193
201	0x3d63f801	0.055656437
202	0xbea51223	-0.322404
203	0x3e85b27a	0.2611273
204	0x3dcdd736	0.10050814
205	0x3e7293fa	0.23689261
206	0xbe9569ec	-0.29182374
207	0xbd7c3a0b	-0.06157879
208	0xbdae7def	-0.08520114
209	0xbd1f51db	-0.038896423
210	0xbc0a3ea1	-0.008437783
211	0xbe0f1f80	-0.1397686
212	0x3d2427e0	0.04007709
213	0xbce28e96	-0.02765588
214	0x3c3c825d	0.01150569
215	0x3cc01b15	0.023450414
216	0x3cedb5c6	0.02901734
217	0x3d045e04	0.032316223
218	0xbe1a0ef7	-0.15044771
219	0x3d4cd20c	0.050005004
220	0x3da84553	0.082163475
221	0x3dbb2fed	0.091400005
222	0x3d0989c5	0.033578653
223	0x3df3bf39	0.11901707
224	0xbe9b908b	-0.30383715
225	0x3c46b6bc	0.012128528
226	0x3c962c08	0.018331543
227	0x3cf77977	0.030209286
228	0xbe30a5df	-0.17250775
229	0xbd307f0c	-0.04308991
230	0xbb2a6446	-0.002599971
231	0xbdb01343	-0.08597424
232	0x3e091bb7	0.13389479
233	0xbe3d503a	-0.18487635
234	0xbdbbbbca	-0.09166677
235	0x3d74ea13	0.059793543
236	0xbd5221b3	-0.05130167
237	0x3c1870b9	0.009304219
238	0x3d515c18	0.051113218
239	0x3e4e1517	0.20125233
240	0xbc8aadfe	-0.016928669
241	0x3c9ddd84	0.019270666
242	0x3e062734	0.13100892
243	0xbd9ed032	-0.07754554
244	0xbc8eba5a	-0.017422844
245	0x3cfc6461	0.030809583
246	0xbc7a1fdf	-0.015266388
247	0x3dfea434	0.12433663
248	0x3bdd998d	0.0067626894
249	0x3dbed382	0.09317686
250	0x3d9faf7f	0.07797145
251	0xbdbe1d85	-0.09282974
252	0x3dc70669	0.097180195
253	0xbda15590	-0.07877648
254	0xbd89c789	-0.067275114
255	0x3de2fcb0	0.110833526

encoder.6.bias f4 [128]
0	0x3ccc817a	0.024964083
1	0xbc99f113	-0.018791711
2	0x3c258a9a	0.010103846
3	0xbca943e8	-0.020662263
4	0x3c888356	0.016664188
5	0x3c3cf897	0.011533878
6	0x3bfb3bb5	0.0076670297
7	0x3c5bd9b1	0.013418601
8	0x3cb10e17	0.021613164
9	0xbc0c04ce	-0.008546067
10	0x3b3d0cbc	0.0028846702
11	0x3c814228	0.015778616
12	0x3cb02c83	0.0215056
13	0x3c7e9205	0.015537743
14	0x3cb632eb	0.022241076
15	0x3b4cb3fe	0.0031235213
16	0x3cca58c3	0.024700528
17	0x3c227b9e	0.009917168
18	0x3bf83a85	0.0075753354
19	0x39de501d	0.0004240283
20	0xbc87c7cf	-0.016574768
21	0x3c2b35e4	0.01044986
22	0xbcb784ba	-0.022402156
23	0x3cd07728	0.025447443
24	0x3c6fc626	0.014634645
25	0xbb8b65f5	-0.0042540976
26	0x3bee211b	0.00726713
27	0x3c83d85c	0.01609438
28	0x3c312b7c	0.01081359
29	0x3cbf9e45	0.023390898
30	0xbb383836	-0.0028109676
31	0x3bfad0c7	0.0076542827
32	0x3c3b6794	0.011438269
33	0x3cc823fe	0.024431225
34	0x3c979bae	0.018506851
35	0xbc80c342	-0.015718106
36	0xbcb17af5	-0.021665076
37	0xbc6df7e5	-0.014524435
38	0xbc529f2a	-0.0128553305
39	0x3bd62956	0.0065356893
40	0x3cc84c7c	0.024450533
41	0xbc7a29be	-0.015268741
42	0x3b5ea7f2	0.0033974615
43	0x3cc7b8cd	0.024380112
44	0xbb7d8e9b	-0.0038689736
45	0xbcb53fce	-0.022125151
46	0x3cad5eaf	0.021163313
47	0xbc66f071	-0.014095412
48	0x3aef9fab	0.0018281838
49	0x3ca88d11	0.020575078
50	0x3c1356b9	0.008992844
51	0xbc996cfe	-0.01872873
52	0xbbda723f	-0.006666451
53	0xbbe6bd5a	-0.0070416154
54	0xbc0812f0	-0.008305296
55	0xbbb6d5e7	-0.0055796984
56	0xbc40edb4	-0.011775423
57	0xbcc75e34	-0.024336912
58	0x3be7a7ba	0.007069555
59	0xbc74d670	-0.014943704
60	0xbbbd762b	-0.005781909
61	0xbc023f48	-0.007949658
62	0x3cb55e89	0.022139804
63	0x3c9ec657	0.019381685
64	0xbcbc6e17	-0.023001714
65	0xbb9f9259	-0.004869741
66	0xbc17dfb9	-0.009269648
67	0xbcbf6b31	-0.023366543
68	0xbc0bd159	-0.008533799
69	0x3c9f633c	0.019456498
70	0xbc7d23e2	-0.01545045
71	0xbb74ceaa	-0.0037354627
72	0x3cbb1a09	0.022839563
73	0x3cc41a57	0.023938341
74	0xbc88b34f	-0.016687064
75	0xbcb2e049	-0.021835463
76	0xba4221d4	-0.00074055535
77	0x3cac0306	0.020997535
78	0x3c09666d	0.008386237
79	0x3b65c385	0.0035059166
80	0xbc279889	-0.010229238
81	0xba0fa0f3	-0.00054790004
82	0x3a6a47af	0.0008937073
83	0xbba1845d	-0.004929109
84	0xbc714e98	-0.014728211
85	0x3cb0fab2	0.021603916
86	0x3a3ad529	0.00071271
87	0x3cceac0a	0.025228519
88	0x3c1c9042	0.009555878
89	0xbc891826	-0.016735148
90	0xbcba217f	-0.02272105
91	0x3c26dd28	0.010184564
92	0xbc28c901	-0.010301829
93	0xbc916dd3	-0.017752564
94	0xbbedb88c	-0.0072546657
95	0xbc9d4e92	-0.019202504
96	0x3ccfaa2b	0.025349697
97	0xbbe01cf1	-0.0068393876
98	0xbc8b5c41	-0.017011764
99	0x3aa84649	0.001283833
100	0x3c761d61	0.015021653
101	0xbbab9189	-0.005235855
102	0x3c5399cf	0.012915089
103	0x3bb30c8e	0.005464143
104	0x3b3be228	0.0028668735
105	0xbc0fb925	-0.008772169
106	0x3c15a6ad	0.009133977
107	0x3c86c095	0.016449252
108	0x3b6c83bd	0.0036089264
109	0xba56db6d	-0.0008196149
110	0x3c7b687b	0.015344734
111	0xbcc50a22	-0.024052683
112	0xbb27427a	-0.00255218
113	0xbc5bb8dd	-0.013410774
114	0xbc5b731d	-0.013394144
115	0xbc83e6c8	-0.016101256
116	0x3cafc87b	0.021457901
117	0x3c9c59fd	0.019085879
118	0x3c3d23ea	0.011544207
119	0x3bc16cc3	0.005902858
120	0x3c5e9b5e	0.013586847
121	0x3cd4791d	0.025936658
122	0xbc9a9f23	-0.01887471
123	0x3c8d3000	0.017234802
124	0xbc142fd6	-0.009044608
125	0x3ca7228f	0.020402221
126	0x3b0e12cf	0.0021678691
127	0x3bccf944	0.0062553007

encoder.7.weight f4 [128]
0	0x3f02573d	0.50914365
1	0x3ed66545	0.41874138
2	0x3f005c26	0.5014061
3	0x3ec418ba	0.38300115
4	0x3ee27bea	0.44235164
5	0x3ed4b789	0.41546276
6	0x3f0b0d89	0.5431753
7	0x3f0e021b	0.5547196
8	0x3f0fa3bb	0.5610921
9	0x3f081175	0.5315164
10	0x3ecc1636	0.39860696
11	0x3f458096	0.7714933
12	0x3f3b040b	0.73053044
13	0x3edaf085	0.42761627
14	0x3f2f0d04	0.68379235
15	0x3f060e2d	0.5236538
16	0x3f1be04f	0.6088914
17	0x3efda8e9	0.4954293
18	0x3f34786a	0.7049624
19	0x3efd8077	0.49512073
20	0x3f098c38	0.5372958
21	0x3f2f890b	0.68568486
22	0x3f23385c	0.6375787
23	0x3eebdf11	0.46068624
24	0x3f042762	0.51622593
25	0x3f2c7459	0.6736503
26	0x3eb89c5e	0.360568
27	0x3f22bd2f	0.6356992
28	0x3f0ffca2	0.5624486
29	0x3f0862c9	0.53275734
30	0x3f000dd0	0.50021076
31	0x3f0b8107	0.54493755
32	0x3f0f539f	0.5598697
33	0x3ef9fd9e	0.48826307
34	0x3ef23992	0.47309548
35	0x3f282370	0.65679073
36	0x3f27af00	0.65501404
37	0x3f340bcb	0.70330495
38	0x3f05692a	0.5211359
39	0x3ed2e854	0.41192877
40	0x3f0b97b0	0.5452833
41	0x3f303a55	0.6883901
42	0x3f25c256	0.6474966
43	0x3ef48425	0.47757068
44	0x3f12543d	0.5715979
45	0x3f45b509	0.7722936
46	0x3f26b90a	0.651261
47	0x3eeee0ee	0.46655983
48	0x3f34fd0b	0.7069861
49	0x3f0b57e9	0.54431015
50	0x3edd085d	0.43170443
51	0x3f179ad2	0.5922061
52	0x3f2442da	0.6416451
53	0x3f087513	0.5330364
54	0x3f2ac69f	0.6670932
55	0x3edf978d	0.43670312
56	0x3ed2a748	0.4114325
57	0x3f31df0b	0.6948096
58	0x3ef6fb8f	0.482388
59	0x3f37226f	0.71536916
60	0x3f21d782	0.63219464
61	0x3eb3ebad	0.35140744
62	0x3f15e7d8	0.5855689
63	0x3f082542	0.5318185
64	0x3f193802	0.59851086
65	0x3ed75dd1	0.42063764
66	0x3f33f19c	0.7029054
67	0x3ed7dffc	0.42163074
68	0x3f1d616f	0.61476797
69	0x3f4404f3	0.7657005
70	0x3ec06bd1	0.37582257
71	0x3f31fff5	0.69531184
72	0x3f24f727	0.64439625
73	0x3efe0ddc	0.4961995
74	0x3f3e43ab	0.74322003
75	0x3f2555e7	0.645842
76	0x3f3f57c1	0.74743277
77	0x3ee31e9c	0.4435929
78	0x3ecad041	0.3961201
79	0x3f1d4f69	0.61449295
80	0x3ee0700c	0.43835485
81	0x3ee0936c	0.43862474
82	0x3f22e601	0.6363221
83	0x3f23c43d	0.6397131
84	0x3f1d982d	0.61560327
85	0x3f2ed518	0.68293905
86	0x3f3688c8	0.7130246
87	0x3f19ca68	0.6007447
88	0x3ec3c424	0.3823558
89	0x3ec9a3d0	0.39382792
90	0x3f0a54c8	0.54035616
91	0x3f29c94c	0.6632278
92	0x3effbeff	0.49950406
93	0x3f1b09f1	0.60562044
94	0x3f4dc216	0.80374277
95	0x3f222e50	0.6335192
96	0x3f05f762	0.523306
97	0x3f024d70	0.5089941
98	0x3f2bfb73	0.67180556
99	0x3f37281a	0.71545565
100	0x3f0d285b	0.551397
101	0x3ed299b1	0.41132882
102	0x3f1c5e42	0.61081326
103	0x3f08250a	0.5318152
104	0x3f25d61b	0.64779824
105	0x3ebc05d5	0.367232
106	0x3ef5e7d5	0.48028436
107	0x3f1ab056	0.6042532
108	0x3ed1aa41	0.40950206
109	0x3f31ce34	0.69455266
110	0x3f2cd6ff	0.6751556
111	0x3ec5b63f	0.38615605
112	0x3f1b2ad6	0.6061224
113	0x3f2c8858	0.67395544
114	0x3f40a45e	0.75250804
115	0x3f2894ba	0.6585194
116	0x3ed9b70b	0.42522463
117	0x3f3651b0	0.71218395
118	0x3ed4f59b	0.41593632
119	0x3f08eaa2	0.5348302
120	0x3f105ab8	0.56388426
121	0x3f08a340	0.533741
122	0x3f3d4aeb	0.7394244
123	0x3f11613f	0.5678901
124	0x3f0c552f	0.5481748
125	0x3f1b0277	0.60550636
126	0x3f00b921	0.50282484
127	0x3f076571	0.5288916

encoder.7.bias f4 [128]
0	0xba860b49	-0.0010226752
1	0xbf0648ee	-0.5245503
2	0xbe89ca3c	-0.26912105
3	0x3e7b3360	0.24531317
4	0xbeacb1b3	-0.33729324
5	0xbef20a5c	-0.4727353
6	0x3de623c4	0.112372905
7	0xbe06ef62	-0.13177255
8	0xbee2443d	-0.44192687
9	0x3e806ebe	0.2508449
10	0xbe9d5301	-0.3072739
11	0xbdca71cf	-0.098849885
12	0xbcef0220	-0.029175818
13	0xbcdda079	-0.027054058
14	0x3cd8e95c	0.026478462
15	0x3e162892	0.14663914
16	0x3e1dfa6d	0.15427561
17	0x3d1eecd7	0.038800087
18	0xbd9e8181	-0.07739545
19	0xbd53ad9c	-0.05167924
20	0x3e3ed229	0.18634857
21	0xbd8a10cc	-0.06741485
22	0xbda63064	-0.081146985
23	0xbd2058c0	-0.03914714
24	0x3d50f479	0.051014397
25	0x3d8f0988	0.0698424
26	0xbd9c26ff	-0.076246254
27	0x3d0318dc	0.03200613
28	0xbe79fdb8	-0.24413192
29	0x3ba0e687	0.0049102935
30	0x3dedc9b3	0.11610737
31	0xbe7a7a1c	-0.24460644
32	0xbeb594a2	-0.3546496
33	0xbd92e0f8	-0.07171816
34	0xbdfd2e7b	-0.12362381
35	0x3d7c70f0	0.061631143
36	0x3abbdc0f	0.001433255
37	0xbf51a021	-0.8188496
38	0x3cb14634	0.02163992
39	0xbd9baa34	-0.07600823
40	0x3e469c46	0.19395551
41	0xba6c2834	-0.0009008676
42	0x3dffe4a5	0.12494782
43	0x3e28d868	0.16488802
44	0xbdc1832c	-0.09448847
45	0x3dc667ba	0.09687753
46	0xbcd7f212	-0.026360545
47	0xbe269772	-0.1626871
48	0xbf2688eb	-0.6505267
49	0xbcff9dec	-0.031203233
50	0xbe271034	-0.16314775
51	0x3e32412d	0.17407675
52	0x3e065852	0.13119629
53	0xbd56044e	-0.0522502
54	0x3cf86a77	0.030324204
55	0x3c01ee5f	0.007930367
56	0x3e1c2748	0.1524936
57	0xbd8c8f25	-0.0686324
58	0xbec64183	-0.38721856
59	0x3e0e1cf7	0.13878237
60	0x3e6b7bc4	0.22996432
61	0xbe9557f6	-0.2916867
62	0x3e3ede3f	0.18639468
63	0xbe48693a	-0.19571391
64	0x3cbe4fdf	0.023231445
65	0xbd7e4249	-0.062074933
66	0x3dfb3c3c	0.12267348
67	0xbea578a3	-0.323186
68	0x3ba4d2a0	0.0050299913
69	0x3d9c3031	0.07626379
70	0xbe7a007a	-0.24414244
71	0x3d7dadf1	0.06193346
72	0x3c9735b1	0.01845822
73	0x3dac0e8b	0.08401211
74	0x3e350099	0.17676009
75	0x3d3d78cf	0.04625779
76	0x3c081744	0.008306328
77	0xbe7bbf06	-0.24584588
78	0xbef453cf	-0.4772019
79	0xbd03ad6e	-0.032147817
80	0x3e0e9ed7	0.1392778
81	0xbe653b54	-0.22385913
82	0x3c1ae059	0.009452903
83	0xbf00da21	-0.5033284
84	0x3c8b26c6	0.016986262
85	0xbf01bc16	-0.5067762
86	0x3cc97866	0.024593543
87	0xbd66ff6a	-0.056395926
88	0xbd6d38ba	-0.057915427
89	0xbda3f03d	-0.08004806
90	0xbd5e9630	-0.05434245
91	0x3de34d21	0.110986955
92	0xbe6a1d66	-0.22862777
93	0x3dd3a4b2	0.103341475
94	0xbd37d23f	-0.04487824
95	0x3b8011d4	0.0039083753
96	0xbd4681f2	-0.04846377
97	0x3e5474c3	0.20747666
98	0xbf2a415b	-0.66505975
99	0x3df6a80d	0.12043772
100	0x3e88b359	0.2669933
101	0x3e37c22e	0.17945167
102	0xbc9ad694	-0.018901147
103	0xbea518e5	-0.32245556
104	0xbd11df1b	-0.03561316
105	0xbe863cea	-0.2621835
106	0xbdad0ec1	-0.0845008
107	0xbf678857	-0.90442413
108	0x3db06c62	0.086144224
109	0x3cb96b37	0.022634132
110	0xbd2b3b5a	-0.04180465
111	0xbd92c632	-0.07166709
112	0x3dbba229	0.09161789
113	0x3e153957	0.14572655
114	0x3d937d64	0.07201651
115	0x3d4da8cc	0.050209805
116	0xbeb5dcfd	-0.35520163
117	0x3d5feed1	0.054671112
118	0xbd59eafa	-0.053202607
119	0xbea46ee7	-0.32115862
120	0x3e515285	0.20441635
121	0xbcd0780a	-0.025447864
122	0x3cf51cc7	0.029920949
123	0x3db7e7d0	0.089797616
124	0xbf477651	-0.7791491
125	0x3e59d693	0.2127326
126	0xbe838a52	-0.25691468
127	0xbe82d8ae	-0.25555938

encoder.7.running_mean f4 [128]
0	0xbf3f0970	-0.74623775
1	0xbfbcf01f	-1.4760779
2	0x3f2900da	0.66016924
3	0xbf8c7ad5	-1.0974985
4	0xbeb339b8	-0.35004973
5	0xbfe91be4	-1.8211637
6	0xbefbeda6	-0.4920475
7	0xbe9b74df	-0.30362603
8	0xbf2a95fa	-0.66635096
9	0xbe83684f	-0.2566552
10	0xbde2f07d	-0.11081026
11	0x3e2815d4	0.16414577
12	0xbdd16864	-0.10224989
13	0xbf3d96e5	-0.7405837
14	0xbf54912a	-0.83034
15	0xbf802259	-1.0010482
16	0xbf9e15ba	-1.235038
17	0x3e86c34a	0.2632087
18	0xbe51d221	-0.20490314
19	0xbf1c4d61	-0.6105557
20	0xbec12362	-0.37722307
21	0xbfc90b6c	-1.5706611
22	0xbf33ec9c	-0.7028291
23	0xbec34bc3	-0.3814374
24	0xbf68240d	-0.9068001
25	0xbf1362b7	-0.575725
26	0xbfa0f320	-1.2574196
27	0xbf203b74	-0.6259072
28	0xbfbeae55	-1.4896952
29	0xbf1726ea	-0.59043753
30	0xbf61f98b	-0.882714
31	0xbee5e988	-0.44904733
32	0xbea9f57a	-0.33195096
33	0xbf469045	-0.7756389
34	0xbf6d49e2	-0.9269086
35	0xbfae7c93	-1.3631767
36	0xbe96619e	-0.2937135
37	0xbf6a9c41	-0.91644675
38	0x3e5168d9	0.20450152
39	0xbfe90e4a	-1.8207486
40	0xbb162cff	-0.0022915003
41	0xbf931913	-1.1492027
42	0xbf71d417	-0.9446425
43	0xbf17c9fc	-0.5929258
44	0xbf61d9b8	-0.8822284
45	0xbf371513	-0.7151653
46	0xbd06e24c	-0.032930657
47	0xbe856d48	-0.26059937
48	0xbfc9c276	-1.576247
49	0xbfb08ff2	-1.3793929
50	0xbf5f19a5	-0.87148505
51	0x3d8ac687	0.06776147
52	0xbfb049fa	-1.3772576
53	0xbe792d0e	-0.24333593
54	0x3d6ee28e	0.058321528
55	0xbfef38b2	-1.8689177
56	0xbe925d13	-0.28586635
57	0xbf0f34cb	-0.5593993
58	0xbe835716	-0.2565238
59	0xbd4abed4	-0.049498394
60	0xbedd72c4	-0.43251622
61	0xbf1ec8dc	-0.6202524
62	0xbf9cd3ba	-1.2252114
63	0xbfd3c9f5	-1.6546007
64	0xbfc7bea0	-1.5605049
65	0xbfa657ea	-1.2995579
66	0xbf55f0be	-0.8357047
67	0xbf9ecc98	-1.2406187
68	0xbfec3d0c	-1.845613
69	0xbe908ab1	-0.28230813
70	0xbf1efe15	-0.6210645
71	0x3d9f5224	0.07779339
72	0xbf9f2f4f	-1.2436312
73	0xbf1ba11b	-0.607927
74	0xbf9705be	-1.1798627
75	0xbfb66a7e	-1.4251249
76	0xbf7f266a	-0.9966799
77	0xbff78be8	-1.9339571
78	0xbf4fbca1	-0.811472
79	0xbf18337c	-0.5945356
80	0xbe9c4846	-0.3052389
81	0xbea2739e	-0.31728834
82	0x3cfd7b9b	0.030942729
83	0xc0194d35	-2.3953373
84	0xbe85726f	-0.26063868
85	0xc01d18f2	-2.4546475
86	0xbf6b4433	-0.9190094
87	0xbf4d333d	-0.8015631
88	0xbfc56669	-1.5421878
89	0xbfaba0dd	-1.3408467
90	0xbeb6d15f	-0.35706612
91	0xbf415135	-0.7551454
92	0xbfa529c2	-1.2903368
93	0xbf5bd24a	-0.8586775
94	0xbec657be	-0.38738817
95	0xbf71530e	-0.94267356
96	0x3d802f3b	0.062590085
97	0xbf3aad87	-0.7292103
98	0xc02a6847	-2.6626146
99	0xbef0ad0e	-0.4700703
100	0xbf831779	-1.0241538
101	0xbf228d49	-0.63496834
102	0xbc2a0390	-0.010376826
103	0xbf92cb8b	-1.1468366
104	0xbe797589	-0.24361242
105	0xbfeb0238	-1.8360052
106	0xbe0b83b4	-0.1362446
107	0x3f956362	1.1670954
108	0x3e8dc3d1	0.2768846
109	0xbd637bbe	-0.05553793
110	0xbe8387a3	-0.2568942
111	0xbe5845e2	-0.21120408
112	0xbfaf5008	-1.3696299
113	0xbf71a5c7	-0.9439358
114	0xbfaba748	-1.3410425
115	0xbf4b8b0e	-0.79509056
116	0xbf1ec025	-0.6201194
117	0xbe2635d5	-0.16231473
118	0xbf09920d	-0.5373848
119	0xbfbf533a	-1.4947274
120	0xbf75d0dd	-0.96021825
121	0xbf532ad4	-0.82487226
122	0xbf848d58	-1.0355635
123	0xbf77ad34	-0.9674866
124	0xbfdd2783	-1.7277683
125	0xbf92e598	-1.1476316
126	0x3e3164c2	0.17323592
127	0xbfe3a4ff	-1.7784728

encoder.7.running_var f4 [128]
0	0x3f639da3	0.8891241
1	0x3f7b3fac	0.9814403
2	0x3fd6cf23	1.6781963
3	0x3f168e85	0.5881122
4	0x3fc65d27	1.5497178
5	0x3fb89afa	1.4422295
6	0x3f11db40	0.56975174
7	0x3f5da940	0.8658638
8	0x3f8f23c2	1.1182787
9	0x3f50b290	0.81522465
10	0x4029e513	2.6546066
11	0x4047b218	3.120245
12	0x4089ee66	4.3103514
13	0x3fe65137	1.7993535
14	0x3fa4f2ba	1.2886574
15	0x3fb53d64	1.415936
16	0x3f5c7a11	0.8612376
17	0x3fffa71b	1.9972872
18	0x40d04ea1	6.5095983
19	0x3fe23f82	1.7675631
20	0x3f511b56	0.81682336
21	0x409e7593	4.9518523
22	0x40840289	4.1253095
23	0x3f96c90b	1.1780103
24	0x401fa2c9	2.4943106
25	0x412fd6cb	10.98994
26	0x3f12919c	0.5725343
27	0x3faec310	1.3653278
28	0x3f7588fa	0.95912135
29	0x401647b5	2.3481266
30	0x3f6b690e	0.91957176
31	0x3f6bff0b	0.9218604
32	0x3fe4c2fa	1.7872002
33	0x3f4b47a7	0.7940621
34	0x3fa844d0	1.3146
35	0x40749e61	3.8221667
36	0x40b80b9e	5.751418
37	0x3fc04e6b	1.5023931
38	0x3fec87c6	1.8478935
39	0x3eacf62f	0.33781573
40	0x3f6ede58	0.9330802
41	0x40ea69a4	7.3253956
42	0x400229e7	2.0338075
43	0x3f3a276e	0.72716415
44	0x3fc8d948	1.5691309
45	0x40004354	2.0041094
46	0x40692a4f	3.6432073
47	0x3f9e41e6	1.2363861
48	0x3f5888d2	0.8458377
49	0x40377afa	2.866881
50	0x3f19d064	0.60083604
51	0x3f505b26	0.8138908
52	0x3f8badeb	1.091245
53	0x3f906a4b	1.1282438
54	0x40b0ec38	5.5288353
55	0x3fe8ce87	1.8188027
56	0x3fb10f68	1.3832827
57	0x40344db3	2.8172424
58	0x3fc23c19	1.517459
59	0x40d67ca9	6.7027173
60	0x3f7ecb8e	0.9952935
61	0x3fbaa8c5	1.4582754
62	0x3fb17ac8	1.3865595
63	0x3f849a0c	1.0359511
64	0x40bbb2a7	5.865558
65	0x3f809c6f	1.004774
66	0x405d6262	3.4591298
67	0x4023d6ea	2.5599923
68	0x40414920	3.0200882
69	0x40f685e8	7.703846
70	0x3f8b4e79	1.0883323
71	0x40ce0ecf	6.4393077
72	0x409df004	4.935549
73	0x40028437	2.0393198
74	0x408a1b2e	4.315818
75	0x4090241c	4.504408
76	0x4098ca64	4.774706
77	0x3fae27b0	1.3605862
78	0x3ff7c659	1.9357406
79	0x3ff9e0dd	1.9521748
80	0x3f029fd2	0.51025116
81	0x4008347c	2.1282034
82	0x40952da4	4.6618214
83	0x3f9ee9fc	1.2415156
84	0x3fa7e556	1.3116863
85	0x3ff4a3c9	1.9112483
86	0x40c32d78	6.0993004
87	0x3fe5c6e6	1.7951324
88	0x3f4cbc89	0.7997518
89	0x3f05d2e6	0.5227493
90	0x3f86e34f	1.0538119
91	0x3fbc3fc5	1.4706961
92	0x3f2c864c	0.6739242
93	0x3f7a2ffe	0.9772948
94	0x3ffc9835	1.973395
95	0x40a8e217	5.277599
96	0x3fa312cf	1.2740115
97	0x3f28f628	0.66000605
98	0x3feaf430	1.835577
99	0x4103dac2	8.240908
100	0x3f5304fe	0.8242949
101	0x3f2afb2c	0.6678951
102	0x4045c143	3.0899208
103	0x3f5ab949	0.8543897
104	0x412d0543	10.813785
105	0x3f684c44	0.9074137
106	0x3f7d448d	0.98932725
107	0x3ff0a364	1.8799863
108	0x3f737f78	0.95116377
109	0x40b889a8	5.7668037
110	0x3fc1ea4d	1.5149628
111	0x3f5ffbce	0.874936
112	0x3fb2af1e	1.3959692
113	0x3f6f6276	0.93509614
114	0x408212bc	4.064787
115	0x40f0c1ee	7.523673
116	0x3fa6da58	1.3035383
117	0x409f9cc9	4.987889
118	0x3fc48941	1.5354387
119	0x400bb081	2.182648
120	0x3f4c2d14	0.79756284
121	0x400bbf6e	2.183559
122	0x40cc128f	6.3772655
123	0x3ff56e9a	1.9174378
124	0x3f8ca140	1.098671
125	0x3f8477b5	1.0349032
126	0x40131432	2.2981076
127	0x3f47f740	0.7811165
